…
I1024 09:40:23.119302 20501 net.cpp:294] The NetState phase (0) differed from the phase (1) specified by a rule in layer accuracy
I1024 09:40:23.119488 20501 net.cpp:51] Initializing net from parameters: 
name: "CaffeNet"
state {
  phase: TRAIN
  level: 0
  stage: ""
}
layer {
  name: "data"
  type: "Data"
  top: "data"
  top: "label"
  include {
    phase: TRAIN
  }
  transform_param {
    mirror: true
    crop_size: 227
    mean_file: "/home/neha/Documents/MI/input/mean.binaryproto"
  }
  data_param {
    source: "/home/neha/Documents/MI/input/train_lmdb"
    batch_size: 90
    backend: LMDB
  }
}
layer {
  name: "conv1"
  type: "Convolution"
  bottom: "data"
  top: "conv1"
  param {
    lr_mult: 1
    decay_mult: 1
  }
  param {
    lr_mult: 2
    decay_mult: 0
  }
  convolution_param {
    num_output: 96
    kernel_size: 11
    stride: 4
    weight_filler {
      type: "gaussian"
      std: 0.01
    }
    bias_filler {
      type: "constant"
      value: 0
    }
  }
}
layer {
  name: "relu1"
  type: "ReLU"
  bottom: "conv1"
  top: "conv1"
}
layer {
  name: "pool1"
  type: "Pooling"
  bottom: "conv1"
  top: "pool1"
  pooling_param {
    pool: MAX
    kernel_size: 3
    stride: 2
  }
}
layer {
  name: "norm1"
  type: "LRN"
  bottom: "pool1"
  top: "norm1"
  lrn_param {
    local_size: 5
    alpha: 0.0001
    beta: 0.75
  }
}
layer {
  name: "conv2"
  type: "Convolution"
  bottom: "norm1"
  top: "conv2"
  param {
    lr_mult: 1
    decay_mult: 1
  }
  param {
    lr_mult: 2
    decay_mult: 0
  }
  convolution_param {
    num_output: 256
    pad: 2
    kernel_size: 5
    group: 2
    weight_filler {
      type: "gaussian"
      std: 0.01
    }
    bias_filler {
      type: "constant"
      value: 1
    }
  }
}
layer {
  name: "relu2"
  type: "ReLU"
  bottom: "conv2"
  top: "conv2"
}
layer {
  name: "conv3"
  type: "Convolution"
  bottom: "conv2"
  top: "conv3"
  param {
    lr_mult: 1
    decay_mult: 1
  }
  param {
    lr_mult: 2
    decay_mult: 0
  }
  convolution_param {
    num_output: 384
    pad: 1
    kernel_size: 3
    weight_filler {
      type: "gaussian"
      std: 0.01
    }
    bias_filler {
      type: "constant"
      value: 0
    }
  }
}
layer {
  name: "relu3"
  type: "ReLU"
  bottom: "conv3"
  top: "conv3"
}
layer {
  name: "conv4"
  type: "Convolution"
  bottom: "conv3"
  top: "conv4"
  param {
    lr_mult: 1
    decay_mult: 1
  }
  param {
    lr_mult: 2
    decay_mult: 0
  }
  convolution_param {
    num_output: 384
    pad: 1
    kernel_size: 3
    group: 2
    weight_filler {
      type: "gaussian"
      std: 0.01
    }
    bias_filler {
      type: "constant"
      value: 1
    }
  }
}
layer {
  name: "relu4"
  type: "ReLU"
  bottom: "conv4"
  top: "conv4"
}
layer {
  name: "pool4"
  type: "Pooling"
  bottom: "conv4"
  top: "pool4"
  pooling_param {
    pool: MAX
    kernel_size: 3
    stride: 2
  }
}
layer {
  name: "norm4"
  type: "LRN"
  bottom: "pool4"
  top: "norm4"
  lrn_param {
    local_size: 5
    alpha: 0.0001
    beta: 0.75
  }
}
layer {
  name: "conv5"
  type: "Convolution"
  bottom: "norm4"
  top: "conv5"
  param {
    lr_mult: 1
    decay_mult: 1
  }
  param {
    lr_mult: 2
    decay_mult: 0
  }
  convolution_param {
    num_output: 256
    pad: 1
    kernel_size: 3
    group: 2
    weight_filler {
      type: "gaussian"
      std: 0.01
    }
    bias_filler {
      type: "constant"
      value: 1
    }
  }
}
layer {
  name: "relu5"
  type: "ReLU"
  bottom: "conv5"
  top: "conv5"
}
layer {
  name: "pool5"
  type: "Pooling"
  bottom: "conv5"
  top: "pool5"
  pooling_param {
    pool: MAX
    kernel_size: 3
    stride: 2
  }
}
layer {
  name: "norm5"
  type: "LRN"
  bottom: "pool5"
  top: "norm5"
  lrn_param {
    local_size: 5
    alpha: 0.0001
    beta: 0.75
  }
}
layer {
  name: "fc6"
  type: "InnerProduct"
  bottom: "norm5"
  top: "fc6"
  param {
    lr_mult: 1
    decay_mult: 1
  }
  param {
    lr_mult: 2
    decay_mult: 0
  }
  inner_product_param {
    num_output: 4096
    weight_filler {
      type: "gaussian"
      std: 0.005
    }
    bias_filler {
      type: "constant"
      value: 1
    }
  }
}
layer {
  name: "relu6"
  type: "ReLU"
  bottom: "fc6"
  top: "fc6"
}
layer {
  name: "drop6"
  type: "Dropout"
  bottom: "fc6"
  top: "fc6"
  dropout_param {
    dropout_ratio: 0.5
  }
}
layer {
  name: "fc7"
  type: "InnerProduct"
  bottom: "fc6"
  top: "fc7"
  param {
    lr_mult: 1
    decay_mult: 1
  }
  param {
    lr_mult: 2
    decay_mult: 0
  }
  inner_product_param {
    num_output: 4096
    weight_filler {
      type: "gaussian"
      std: 0.005
    }
    bias_filler {
      type: "constant"
      value: 1
    }
  }
}
layer {
  name: "relu7"
  type: "ReLU"
  bottom: "fc7"
  top: "fc7"
}
layer {
  name: "drop7"
  type: "Dropout"
  bottom: "fc7"
  top: "fc7"
  dropout_param {
    dropout_ratio: 0.5
  }
}
layer {
  name: "fc8"
  type: "InnerProduct"
  bottom: "fc7"
  top: "fc8"
  param {
    lr_mult: 1
    decay_mult: 1
  }
  param {
    lr_mult: 2
    decay_mult: 0
  }
  inner_product_param {
    num_output: 12
    weight_filler {
      type: "gaussian"
      std: 0.01
    }
    bias_filler {
      type: "constant"
      value: 0
    }
  }
}
layer {
  name: "loss"
  type: "SoftmaxWithLoss"
  bottom: "fc8"
  bottom: "label"
  top: "loss"
}
I1024 09:40:23.119608 20501 layer_factory.hpp:77] Creating layer data
I1024 09:40:23.119729 20501 db_lmdb.cpp:35] Opened lmdb /home/neha/Documents/MI/input/train_lmdb
I1024 09:40:23.119755 20501 net.cpp:84] Creating Layer data
I1024 09:40:23.119774 20501 net.cpp:380] data -> data
I1024 09:40:23.119798 20501 net.cpp:380] data -> label
I1024 09:40:23.119812 20501 data_transformer.cpp:25] Loading mean file from: /home/neha/Documents/MI/input/mean.binaryproto
I1024 09:40:23.121680 20501 data_layer.cpp:45] output data size: 90,3,227,227
I1024 09:40:23.121765 20501 net.cpp:122] Setting up data
I1024 09:40:23.121778 20501 net.cpp:129] Top shape: 90 3 227 227 (13912830)
I1024 09:40:23.121783 20501 net.cpp:129] Top shape: 90 (90)
I1024 09:40:23.121786 20501 net.cpp:137] Memory required for data: 55651680
I1024 09:40:23.121793 20501 layer_factory.hpp:77] Creating layer conv1
I1024 09:40:23.121810 20501 net.cpp:84] Creating Layer conv1
I1024 09:40:23.121815 20501 net.cpp:406] conv1 <- data
I1024 09:40:23.121829 20501 net.cpp:380] conv1 -> conv1
I1024 09:40:23.122648 20501 net.cpp:122] Setting up conv1
I1024 09:40:23.122658 20501 net.cpp:129] Top shape: 90 96 55 55 (26136000)
I1024 09:40:23.122660 20501 net.cpp:137] Memory required for data: 160195680
I1024 09:40:23.122678 20501 layer_factory.hpp:77] Creating layer relu1
I1024 09:40:23.122685 20501 net.cpp:84] Creating Layer relu1
I1024 09:40:23.122689 20501 net.cpp:406] relu1 <- conv1
I1024 09:40:23.122694 20501 net.cpp:367] relu1 -> conv1 (in-place)
I1024 09:40:23.122701 20501 net.cpp:122] Setting up relu1
I1024 09:40:23.122706 20501 net.cpp:129] Top shape: 90 96 55 55 (26136000)
I1024 09:40:23.122709 20501 net.cpp:137] Memory required for data: 264739680
I1024 09:40:23.122712 20501 layer_factory.hpp:77] Creating layer pool1
I1024 09:40:23.122717 20501 net.cpp:84] Creating Layer pool1
I1024 09:40:23.122720 20501 net.cpp:406] pool1 <- conv1
I1024 09:40:23.122725 20501 net.cpp:380] pool1 -> pool1
I1024 09:40:23.122740 20501 net.cpp:122] Setting up pool1
I1024 09:40:23.122745 20501 net.cpp:129] Top shape: 90 96 27 27 (6298560)
I1024 09:40:23.122748 20501 net.cpp:137] Memory required for data: 289933920
I1024 09:40:23.122751 20501 layer_factory.hpp:77] Creating layer norm1
I1024 09:40:23.122757 20501 net.cpp:84] Creating Layer norm1
I1024 09:40:23.122776 20501 net.cpp:406] norm1 <- pool1
I1024 09:40:23.122781 20501 net.cpp:380] norm1 -> norm1
I1024 09:40:23.122792 20501 net.cpp:122] Setting up norm1
I1024 09:40:23.122797 20501 net.cpp:129] Top shape: 90 96 27 27 (6298560)
I1024 09:40:23.122799 20501 net.cpp:137] Memory required for data: 315128160
I1024 09:40:23.122802 20501 layer_factory.hpp:77] Creating layer conv2
I1024 09:40:23.122809 20501 net.cpp:84] Creating Layer conv2
I1024 09:40:23.122812 20501 net.cpp:406] conv2 <- norm1
I1024 09:40:23.122817 20501 net.cpp:380] conv2 -> conv2
I1024 09:40:23.129264 20501 net.cpp:122] Setting up conv2
I1024 09:40:23.129295 20501 net.cpp:129] Top shape: 90 256 27 27 (16796160)
I1024 09:40:23.129298 20501 net.cpp:137] Memory required for data: 382312800
I1024 09:40:23.129314 20501 layer_factory.hpp:77] Creating layer relu2
I1024 09:40:23.129324 20501 net.cpp:84] Creating Layer relu2
I1024 09:40:23.129328 20501 net.cpp:406] relu2 <- conv2
I1024 09:40:23.129333 20501 net.cpp:367] relu2 -> conv2 (in-place)
I1024 09:40:23.129340 20501 net.cpp:122] Setting up relu2
I1024 09:40:23.129344 20501 net.cpp:129] Top shape: 90 256 27 27 (16796160)
I1024 09:40:23.129385 20501 net.cpp:137] Memory required for data: 449497440
I1024 09:40:23.129390 20501 layer_factory.hpp:77] Creating layer conv3
I1024 09:40:23.129401 20501 net.cpp:84] Creating Layer conv3
I1024 09:40:23.129405 20501 net.cpp:406] conv3 <- conv2
I1024 09:40:23.129413 20501 net.cpp:380] conv3 -> conv3
I1024 09:40:23.145800 20501 net.cpp:122] Setting up conv3
I1024 09:40:23.145860 20501 net.cpp:129] Top shape: 90 384 27 27 (25194240)
I1024 09:40:23.145865 20501 net.cpp:137] Memory required for data: 550274400
I1024 09:40:23.145896 20501 layer_factory.hpp:77] Creating layer relu3
I1024 09:40:23.145928 20501 net.cpp:84] Creating Layer relu3
I1024 09:40:23.145934 20501 net.cpp:406] relu3 <- conv3
I1024 09:40:23.145947 20501 net.cpp:367] relu3 -> conv3 (in-place)
I1024 09:40:23.145963 20501 net.cpp:122] Setting up relu3
I1024 09:40:23.145972 20501 net.cpp:129] Top shape: 90 384 27 27 (25194240)
I1024 09:40:23.145975 20501 net.cpp:137] Memory required for data: 651051360
I1024 09:40:23.145979 20501 layer_factory.hpp:77] Creating layer conv4
I1024 09:40:23.146001 20501 net.cpp:84] Creating Layer conv4
I1024 09:40:23.146008 20501 net.cpp:406] conv4 <- conv3
I1024 09:40:23.146020 20501 net.cpp:380] conv4 -> conv4
I1024 09:40:23.160918 20501 net.cpp:122] Setting up conv4
I1024 09:40:23.160955 20501 net.cpp:129] Top shape: 90 384 27 27 (25194240)
I1024 09:40:23.160959 20501 net.cpp:137] Memory required for data: 751828320
I1024 09:40:23.160969 20501 layer_factory.hpp:77] Creating layer relu4
I1024 09:40:23.160977 20501 net.cpp:84] Creating Layer relu4
I1024 09:40:23.160981 20501 net.cpp:406] relu4 <- conv4
I1024 09:40:23.160987 20501 net.cpp:367] relu4 -> conv4 (in-place)
I1024 09:40:23.160995 20501 net.cpp:122] Setting up relu4
I1024 09:40:23.161000 20501 net.cpp:129] Top shape: 90 384 27 27 (25194240)
I1024 09:40:23.161003 20501 net.cpp:137] Memory required for data: 852605280
I1024 09:40:23.161007 20501 layer_factory.hpp:77] Creating layer pool4
I1024 09:40:23.161015 20501 net.cpp:84] Creating Layer pool4
I1024 09:40:23.161017 20501 net.cpp:406] pool4 <- conv4
I1024 09:40:23.161023 20501 net.cpp:380] pool4 -> pool4
I1024 09:40:23.161038 20501 net.cpp:122] Setting up pool4
I1024 09:40:23.161057 20501 net.cpp:129] Top shape: 90 384 13 13 (5840640)
I1024 09:40:23.161062 20501 net.cpp:137] Memory required for data: 875967840
I1024 09:40:23.161065 20501 layer_factory.hpp:77] Creating layer norm4
I1024 09:40:23.161072 20501 net.cpp:84] Creating Layer norm4
I1024 09:40:23.161084 20501 net.cpp:406] norm4 <- pool4
I1024 09:40:23.161092 20501 net.cpp:380] norm4 -> norm4
I1024 09:40:23.161106 20501 net.cpp:122] Setting up norm4
I1024 09:40:23.161115 20501 net.cpp:129] Top shape: 90 384 13 13 (5840640)
I1024 09:40:23.161124 20501 net.cpp:137] Memory required for data: 899330400
I1024 09:40:23.161129 20501 layer_factory.hpp:77] Creating layer conv5
I1024 09:40:23.161162 20501 net.cpp:84] Creating Layer conv5
I1024 09:40:23.161170 20501 net.cpp:406] conv5 <- norm4
I1024 09:40:23.161178 20501 net.cpp:380] conv5 -> conv5
I1024 09:40:23.169699 20501 net.cpp:122] Setting up conv5
I1024 09:40:23.169730 20501 net.cpp:129] Top shape: 90 256 13 13 (3893760)
I1024 09:40:23.169734 20501 net.cpp:137] Memory required for data: 914905440
I1024 09:40:23.169749 20501 layer_factory.hpp:77] Creating layer relu5
I1024 09:40:23.169764 20501 net.cpp:84] Creating Layer relu5
I1024 09:40:23.169769 20501 net.cpp:406] relu5 <- conv5
I1024 09:40:23.169776 20501 net.cpp:367] relu5 -> conv5 (in-place)
I1024 09:40:23.169824 20501 net.cpp:122] Setting up relu5
I1024 09:40:23.169836 20501 net.cpp:129] Top shape: 90 256 13 13 (3893760)
I1024 09:40:23.169840 20501 net.cpp:137] Memory required for data: 930480480
I1024 09:40:23.169845 20501 layer_factory.hpp:77] Creating layer pool5
I1024 09:40:23.169852 20501 net.cpp:84] Creating Layer pool5
I1024 09:40:23.169860 20501 net.cpp:406] pool5 <- conv5
I1024 09:40:23.169868 20501 net.cpp:380] pool5 -> pool5
I1024 09:40:23.169885 20501 net.cpp:122] Setting up pool5
I1024 09:40:23.169893 20501 net.cpp:129] Top shape: 90 256 6 6 (829440)
I1024 09:40:23.169898 20501 net.cpp:137] Memory required for data: 933798240
I1024 09:40:23.169901 20501 layer_factory.hpp:77] Creating layer norm5
I1024 09:40:23.169910 20501 net.cpp:84] Creating Layer norm5
I1024 09:40:23.169914 20501 net.cpp:406] norm5 <- pool5
I1024 09:40:23.169921 20501 net.cpp:380] norm5 -> norm5
I1024 09:40:23.169931 20501 net.cpp:122] Setting up norm5
I1024 09:40:23.169939 20501 net.cpp:129] Top shape: 90 256 6 6 (829440)
I1024 09:40:23.169944 20501 net.cpp:137] Memory required for data: 937116000
I1024 09:40:23.169948 20501 layer_factory.hpp:77] Creating layer fc6
I1024 09:40:23.169956 20501 net.cpp:84] Creating Layer fc6
I1024 09:40:23.169962 20501 net.cpp:406] fc6 <- norm5
I1024 09:40:23.169970 20501 net.cpp:380] fc6 -> fc6
I1024 09:40:23.820660 20501 net.cpp:122] Setting up fc6
I1024 09:40:23.820688 20501 net.cpp:129] Top shape: 90 4096 (368640)
I1024 09:40:23.820708 20501 net.cpp:137] Memory required for data: 938590560
I1024 09:40:23.820719 20501 layer_factory.hpp:77] Creating layer relu6
I1024 09:40:23.820755 20501 net.cpp:84] Creating Layer relu6
I1024 09:40:23.820760 20501 net.cpp:406] relu6 <- fc6
I1024 09:40:23.820770 20501 net.cpp:367] relu6 -> fc6 (in-place)
I1024 09:40:23.820781 20501 net.cpp:122] Setting up relu6
I1024 09:40:23.820786 20501 net.cpp:129] Top shape: 90 4096 (368640)
I1024 09:40:23.820791 20501 net.cpp:137] Memory required for data: 940065120
I1024 09:40:23.820794 20501 layer_factory.hpp:77] Creating layer drop6
I1024 09:40:23.820801 20501 net.cpp:84] Creating Layer drop6
I1024 09:40:23.820808 20501 net.cpp:406] drop6 <- fc6
I1024 09:40:23.820813 20501 net.cpp:367] drop6 -> fc6 (in-place)
I1024 09:40:23.820830 20501 net.cpp:122] Setting up drop6
I1024 09:40:23.820838 20501 net.cpp:129] Top shape: 90 4096 (368640)
I1024 09:40:23.820842 20501 net.cpp:137] Memory required for data: 941539680
I1024 09:40:23.820847 20501 layer_factory.hpp:77] Creating layer fc7
I1024 09:40:23.820857 20501 net.cpp:84] Creating Layer fc7
I1024 09:40:23.820863 20501 net.cpp:406] fc7 <- fc6
I1024 09:40:23.820870 20501 net.cpp:380] fc7 -> fc7
I1024 09:40:24.108925 20501 net.cpp:122] Setting up fc7
I1024 09:40:24.108952 20501 net.cpp:129] Top shape: 90 4096 (368640)
I1024 09:40:24.108955 20501 net.cpp:137] Memory required for data: 943014240
I1024 09:40:24.108981 20501 layer_factory.hpp:77] Creating layer relu7
I1024 09:40:24.108990 20501 net.cpp:84] Creating Layer relu7
I1024 09:40:24.108994 20501 net.cpp:406] relu7 <- fc7
I1024 09:40:24.109000 20501 net.cpp:367] relu7 -> fc7 (in-place)
I1024 09:40:24.109010 20501 net.cpp:122] Setting up relu7
I1024 09:40:24.109015 20501 net.cpp:129] Top shape: 90 4096 (368640)
I1024 09:40:24.109032 20501 net.cpp:137] Memory required for data: 944488800
I1024 09:40:24.109035 20501 layer_factory.hpp:77] Creating layer drop7
I1024 09:40:24.109042 20501 net.cpp:84] Creating Layer drop7
I1024 09:40:24.109069 20501 net.cpp:406] drop7 <- fc7
I1024 09:40:24.109076 20501 net.cpp:367] drop7 -> fc7 (in-place)
I1024 09:40:24.109086 20501 net.cpp:122] Setting up drop7
I1024 09:40:24.109091 20501 net.cpp:129] Top shape: 90 4096 (368640)
I1024 09:40:24.109094 20501 net.cpp:137] Memory required for data: 945963360
I1024 09:40:24.109097 20501 layer_factory.hpp:77] Creating layer fc8
I1024 09:40:24.109103 20501 net.cpp:84] Creating Layer fc8
I1024 09:40:24.109107 20501 net.cpp:406] fc8 <- fc7
I1024 09:40:24.109113 20501 net.cpp:380] fc8 -> fc8
I1024 09:40:24.110023 20501 net.cpp:122] Setting up fc8
I1024 09:40:24.110029 20501 net.cpp:129] Top shape: 90 12 (1080)
I1024 09:40:24.110033 20501 net.cpp:137] Memory required for data: 945967680
I1024 09:40:24.110054 20501 layer_factory.hpp:77] Creating layer loss
I1024 09:40:24.110059 20501 net.cpp:84] Creating Layer loss
I1024 09:40:24.110062 20501 net.cpp:406] loss <- fc8
I1024 09:40:24.110066 20501 net.cpp:406] loss <- label
I1024 09:40:24.110085 20501 net.cpp:380] loss -> loss
I1024 09:40:24.110098 20501 layer_factory.hpp:77] Creating layer loss
…
I1024 09:40:24.110651 20501 net.cpp:294] The NetState phase (1) differed from the phase (0) specified by a rule in layer data
I1024 09:40:24.110878 20501 net.cpp:51] Initializing net from parameters: 
name: "CaffeNet"
state {
  phase: TEST
}
layer {
  name: "data"
  type: "Data"
  top: "data"
  top: "label"
  include {
    phase: TEST
  }
  transform_param {
    mirror: false
    crop_size: 227
    mean_file: "/home/neha/Documents/MI/input/mean.binaryproto"
  }
  data_param {
    source: "/home/neha/Documents/MI/input/validation_lmdb"
    batch_size: 30
    backend: LMDB
  }
}
layer {
  name: "conv1"
  type: "Convolution"
  bottom: "data"
  top: "conv1"
  param {
    lr_mult: 1
    decay_mult: 1
  }
  param {
    lr_mult: 2
    decay_mult: 0
  }
  convolution_param {
    num_output: 96
    kernel_size: 11
    stride: 4
    weight_filler {
      type: "gaussian"
      std: 0.01
    }
    bias_filler {
      type: "constant"
      value: 0
    }
  }
}
layer {
  name: "relu1"
  type: "ReLU"
  bottom: "conv1"
  top: "conv1"
}
layer {
  name: "pool1"
  type: "Pooling"
  bottom: "conv1"
  top: "pool1"
  pooling_param {
    pool: MAX
    kernel_size: 3
    stride: 2
  }
}
layer {
  name: "norm1"
  type: "LRN"
  bottom: "pool1"
  top: "norm1"
  lrn_param {
    local_size: 5
    alpha: 0.0001
    beta: 0.75
  }
}
layer {
  name: "conv2"
  type: "Convolution"
  bottom: "norm1"
  top: "conv2"
  param {
    lr_mult: 1
    decay_mult: 1
  }
  param {
    lr_mult: 2
    decay_mult: 0
  }
  convolution_param {
    num_output: 256
    pad: 2
    kernel_size: 5
    group: 2
    weight_filler {
      type: "gaussian"
      std: 0.01
    }
    bias_filler {
      type: "constant"
      value: 1
    }
  }
}
layer {
  name: "relu2"
  type: "ReLU"
  bottom: "conv2"
  top: "conv2"
}
layer {
  name: "conv3"
  type: "Convolution"
  bottom: "conv2"
  top: "conv3"
  param {
    lr_mult: 1
    decay_mult: 1
  }
  param {
    lr_mult: 2
    decay_mult: 0
  }
  convolution_param {
    num_output: 384
    pad: 1
    kernel_size: 3
    weight_filler {
      type: "gaussian"
      std: 0.01
    }
    bias_filler {
      type: "constant"
      value: 0
    }
  }
}
layer {
  name: "relu3"
  type: "ReLU"
  bottom: "conv3"
  top: "conv3"
}
layer {
  name: "conv4"
  type: "Convolution"
  bottom: "conv3"
  top: "conv4"
  param {
    lr_mult: 1
    decay_mult: 1
  }
  param {
    lr_mult: 2
    decay_mult: 0
  }
  convolution_param {
    num_output: 384
    pad: 1
    kernel_size: 3
    group: 2
    weight_filler {
      type: "gaussian"
      std: 0.01
    }
    bias_filler {
      type: "constant"
      value: 1
    }
  }
}
layer {
  name: "relu4"
  type: "ReLU"
  bottom: "conv4"
  top: "conv4"
}
layer {
  name: "pool4"
  type: "Pooling"
  bottom: "conv4"
  top: "pool4"
  pooling_param {
    pool: MAX
    kernel_size: 3
    stride: 2
  }
}
layer {
  name: "norm4"
  type: "LRN"
  bottom: "pool4"
  top: "norm4"
  lrn_param {
    local_size: 5
    alpha: 0.0001
    beta: 0.75
  }
}
layer {
  name: "conv5"
  type: "Convolution"
  bottom: "norm4"
  top: "conv5"
  param {
    lr_mult: 1
    decay_mult: 1
  }
  param {
    lr_mult: 2
    decay_mult: 0
  }
  convolution_param {
    num_output: 256
    pad: 1
    kernel_size: 3
    group: 2
    weight_filler {
      type: "gaussian"
      std: 0.01
    }
    bias_filler {
      type: "constant"
      value: 1
    }
  }
}
layer {
  name: "relu5"
  type: "ReLU"
  bottom: "conv5"
  top: "conv5"
}
layer {
  name: "pool5"
  type: "Pooling"
  bottom: "conv5"
  top: "pool5"
  pooling_param {
    pool: MAX
    kernel_size: 3
    stride: 2
  }
}
layer {
  name: "norm5"
  type: "LRN"
  bottom: "pool5"
  top: "norm5"
  lrn_param {
    local_size: 5
    alpha: 0.0001
    beta: 0.75
  }
}
layer {
  name: "fc6"
  type: "InnerProduct"
  bottom: "norm5"
  top: "fc6"
  param {
    lr_mult: 1
    decay_mult: 1
  }
  param {
    lr_mult: 2
    decay_mult: 0
  }
  inner_product_param {
    num_output: 4096
    weight_filler {
      type: "gaussian"
      std: 0.005
    }
    bias_filler {
      type: "constant"
      value: 1
    }
  }
}
layer {
  name: "relu6"
  type: "ReLU"
  bottom: "fc6"
  top: "fc6"
}
layer {
  name: "drop6"
  type: "Dropout"
  bottom: "fc6"
  top: "fc6"
  dropout_param {
    dropout_ratio: 0.5
  }
}
layer {
  name: "fc7"
  type: "InnerProduct"
  bottom: "fc6"
  top: "fc7"
  param {
    lr_mult: 1
    decay_mult: 1
  }
  param {
    lr_mult: 2
    decay_mult: 0
  }
  inner_product_param {
    num_output: 4096
    weight_filler {
      type: "gaussian"
      std: 0.005
    }
    bias_filler {
      type: "constant"
      value: 1
    }
  }
}
layer {
  name: "relu7"
  type: "ReLU"
  bottom: "fc7"
  top: "fc7"
}
layer {
  name: "drop7"
  type: "Dropout"
  bottom: "fc7"
  top: "fc7"
  dropout_param {
    dropout_ratio: 0.5
  }
}
layer {
  name: "fc8"
  type: "InnerProduct"
  bottom: "fc7"
  top: "fc8"
  param {
    lr_mult: 1
    decay_mult: 1
  }
  param {
    lr_mult: 2
    decay_mult: 0
  }
  inner_product_param {
    num_output: 12
    weight_filler {
      type: "gaussian"
      std: 0.01
    }
    bias_filler {
      type: "constant"
      value: 0
    }
  }
}
layer {
  name: "accuracy"
  type: "Accuracy"
  bottom: "fc8"
  bottom: "label"
  top: "accuracy"
  include {
    phase: TEST
  }
}
layer {
  name: "loss"
  type: "SoftmaxWithLoss"
  bottom: "fc8"
  bottom: "label"
  top: "loss"
}
I1024 09:40:24.111024 20501 layer_factory.hpp:77] Creating layer data
I1024 09:40:24.111085 20501 db_lmdb.cpp:35] Opened lmdb /home/neha/Documents/MI/input/validation_lmdb
I1024 09:40:24.111111 20501 net.cpp:84] Creating Layer data
I1024 09:40:24.111119 20501 net.cpp:380] data -> data
I1024 09:40:24.111131 20501 net.cpp:380] data -> label
I1024 09:40:24.111142 20501 data_transformer.cpp:25] Loading mean file from: /home/neha/Documents/MI/input/mean.binaryproto
I1024 09:40:24.112406 20501 data_layer.cpp:45] output data size: 30,3,227,227
I1024 09:40:24.112478 20501 net.cpp:122] Setting up data
I1024 09:40:24.112493 20501 net.cpp:129] Top shape: 30 3 227 227 (4637610)
I1024 09:40:24.112496 20501 net.cpp:129] Top shape: 30 (30)
I1024 09:40:24.112498 20501 net.cpp:137] Memory required for data: 18550560
I1024 09:40:24.112502 20501 layer_factory.hpp:77] Creating layer label_data_1_split
I1024 09:40:24.112510 20501 net.cpp:84] Creating Layer label_data_1_split
I1024 09:40:24.112514 20501 net.cpp:406] label_data_1_split <- label
I1024 09:40:24.112519 20501 net.cpp:380] label_data_1_split -> label_data_1_split_0
I1024 09:40:24.112526 20501 net.cpp:380] label_data_1_split -> label_data_1_split_1
I1024 09:40:24.112534 20501 net.cpp:122] Setting up label_data_1_split
I1024 09:40:24.112538 20501 net.cpp:129] Top shape: 30 (30)
I1024 09:40:24.112541 20501 net.cpp:129] Top shape: 30 (30)
I1024 09:40:24.112545 20501 net.cpp:137] Memory required for data: 18550800
I1024 09:40:24.112578 20501 layer_factory.hpp:77] Creating layer conv1
I1024 09:40:24.112588 20501 net.cpp:84] Creating Layer conv1
I1024 09:40:24.112591 20501 net.cpp:406] conv1 <- data
I1024 09:40:24.112597 20501 net.cpp:380] conv1 -> conv1
I1024 09:40:24.112987 20501 net.cpp:122] Setting up conv1
I1024 09:40:24.112995 20501 net.cpp:129] Top shape: 30 96 55 55 (8712000)
I1024 09:40:24.112998 20501 net.cpp:137] Memory required for data: 53398800
I1024 09:40:24.113006 20501 layer_factory.hpp:77] Creating layer relu1
I1024 09:40:24.113011 20501 net.cpp:84] Creating Layer relu1
I1024 09:40:24.113014 20501 net.cpp:406] relu1 <- conv1
I1024 09:40:24.113018 20501 net.cpp:367] relu1 -> conv1 (in-place)
I1024 09:40:24.113023 20501 net.cpp:122] Setting up relu1
I1024 09:40:24.113029 20501 net.cpp:129] Top shape: 30 96 55 55 (8712000)
I1024 09:40:24.113030 20501 net.cpp:137] Memory required for data: 88246800
I1024 09:40:24.113034 20501 layer_factory.hpp:77] Creating layer pool1
I1024 09:40:24.113039 20501 net.cpp:84] Creating Layer pool1
I1024 09:40:24.113041 20501 net.cpp:406] pool1 <- conv1
I1024 09:40:24.113045 20501 net.cpp:380] pool1 -> pool1
I1024 09:40:24.113052 20501 net.cpp:122] Setting up pool1
I1024 09:40:24.113056 20501 net.cpp:129] Top shape: 30 96 27 27 (2099520)
I1024 09:40:24.113059 20501 net.cpp:137] Memory required for data: 96644880
I1024 09:40:24.113061 20501 layer_factory.hpp:77] Creating layer norm1
I1024 09:40:24.113065 20501 net.cpp:84] Creating Layer norm1
I1024 09:40:24.113068 20501 net.cpp:406] norm1 <- pool1
I1024 09:40:24.113071 20501 net.cpp:380] norm1 -> norm1
I1024 09:40:24.113077 20501 net.cpp:122] Setting up norm1
I1024 09:40:24.113081 20501 net.cpp:129] Top shape: 30 96 27 27 (2099520)
I1024 09:40:24.113085 20501 net.cpp:137] Memory required for data: 105042960
I1024 09:40:24.113086 20501 layer_factory.hpp:77] Creating layer conv2
I1024 09:40:24.113106 20501 net.cpp:84] Creating Layer conv2
I1024 09:40:24.113108 20501 net.cpp:406] conv2 <- norm1
I1024 09:40:24.113113 20501 net.cpp:380] conv2 -> conv2
I1024 09:40:24.116307 20501 net.cpp:122] Setting up conv2
I1024 09:40:24.116325 20501 net.cpp:129] Top shape: 30 256 27 27 (5598720)
I1024 09:40:24.116328 20501 net.cpp:137] Memory required for data: 127437840
I1024 09:40:24.116339 20501 layer_factory.hpp:77] Creating layer relu2
I1024 09:40:24.116345 20501 net.cpp:84] Creating Layer relu2
I1024 09:40:24.116349 20501 net.cpp:406] relu2 <- conv2
I1024 09:40:24.116355 20501 net.cpp:367] relu2 -> conv2 (in-place)
I1024 09:40:24.116363 20501 net.cpp:122] Setting up relu2
I1024 09:40:24.116366 20501 net.cpp:129] Top shape: 30 256 27 27 (5598720)
I1024 09:40:24.116369 20501 net.cpp:137] Memory required for data: 149832720
I1024 09:40:24.116371 20501 layer_factory.hpp:77] Creating layer conv3
I1024 09:40:24.116380 20501 net.cpp:84] Creating Layer conv3
I1024 09:40:24.116384 20501 net.cpp:406] conv3 <- conv2
I1024 09:40:24.116389 20501 net.cpp:380] conv3 -> conv3
I1024 09:40:24.128753 20501 net.cpp:122] Setting up conv3
I1024 09:40:24.128865 20501 net.cpp:129] Top shape: 30 384 27 27 (8398080)
I1024 09:40:24.128876 20501 net.cpp:137] Memory required for data: 183425040
I1024 09:40:24.128952 20501 layer_factory.hpp:77] Creating layer relu3
I1024 09:40:24.129009 20501 net.cpp:84] Creating Layer relu3
I1024 09:40:24.129027 20501 net.cpp:406] relu3 <- conv3
I1024 09:40:24.129056 20501 net.cpp:367] relu3 -> conv3 (in-place)
I1024 09:40:24.129082 20501 net.cpp:122] Setting up relu3
I1024 09:40:24.129091 20501 net.cpp:129] Top shape: 30 384 27 27 (8398080)
I1024 09:40:24.129096 20501 net.cpp:137] Memory required for data: 217017360
I1024 09:40:24.129099 20501 layer_factory.hpp:77] Creating layer conv4
I1024 09:40:24.129127 20501 net.cpp:84] Creating Layer conv4
I1024 09:40:24.129133 20501 net.cpp:406] conv4 <- conv3
I1024 09:40:24.129140 20501 net.cpp:380] conv4 -> conv4
I1024 09:40:24.136800 20501 net.cpp:122] Setting up conv4
I1024 09:40:24.136837 20501 net.cpp:129] Top shape: 30 384 27 27 (8398080)
I1024 09:40:24.136842 20501 net.cpp:137] Memory required for data: 250609680
I1024 09:40:24.136853 20501 layer_factory.hpp:77] Creating layer relu4
I1024 09:40:24.136863 20501 net.cpp:84] Creating Layer relu4
I1024 09:40:24.136869 20501 net.cpp:406] relu4 <- conv4
I1024 09:40:24.136883 20501 net.cpp:367] relu4 -> conv4 (in-place)
I1024 09:40:24.136905 20501 net.cpp:122] Setting up relu4
I1024 09:40:24.136912 20501 net.cpp:129] Top shape: 30 384 27 27 (8398080)
I1024 09:40:24.136916 20501 net.cpp:137] Memory required for data: 284202000
I1024 09:40:24.136920 20501 layer_factory.hpp:77] Creating layer pool4
I1024 09:40:24.136929 20501 net.cpp:84] Creating Layer pool4
I1024 09:40:24.136931 20501 net.cpp:406] pool4 <- conv4
I1024 09:40:24.136937 20501 net.cpp:380] pool4 -> pool4
I1024 09:40:24.136950 20501 net.cpp:122] Setting up pool4
I1024 09:40:24.136956 20501 net.cpp:129] Top shape: 30 384 13 13 (1946880)
I1024 09:40:24.136960 20501 net.cpp:137] Memory required for data: 291989520
I1024 09:40:24.136965 20501 layer_factory.hpp:77] Creating layer norm4
I1024 09:40:24.136971 20501 net.cpp:84] Creating Layer norm4
I1024 09:40:24.136976 20501 net.cpp:406] norm4 <- pool4
I1024 09:40:24.136984 20501 net.cpp:380] norm4 -> norm4
I1024 09:40:24.136994 20501 net.cpp:122] Setting up norm4
I1024 09:40:24.137001 20501 net.cpp:129] Top shape: 30 384 13 13 (1946880)
I1024 09:40:24.137004 20501 net.cpp:137] Memory required for data: 299777040
I1024 09:40:24.137008 20501 layer_factory.hpp:77] Creating layer conv5
I1024 09:40:24.137019 20501 net.cpp:84] Creating Layer conv5
I1024 09:40:24.137024 20501 net.cpp:406] conv5 <- norm4
I1024 09:40:24.137032 20501 net.cpp:380] conv5 -> conv5
I1024 09:40:24.142946 20501 net.cpp:122] Setting up conv5
I1024 09:40:24.142990 20501 net.cpp:129] Top shape: 30 256 13 13 (1297920)
I1024 09:40:24.142995 20501 net.cpp:137] Memory required for data: 304968720
I1024 09:40:24.143015 20501 layer_factory.hpp:77] Creating layer relu5
I1024 09:40:24.143050 20501 net.cpp:84] Creating Layer relu5
I1024 09:40:24.143057 20501 net.cpp:406] relu5 <- conv5
I1024 09:40:24.143064 20501 net.cpp:367] relu5 -> conv5 (in-place)
I1024 09:40:24.143072 20501 net.cpp:122] Setting up relu5
I1024 09:40:24.143076 20501 net.cpp:129] Top shape: 30 256 13 13 (1297920)
I1024 09:40:24.143079 20501 net.cpp:137] Memory required for data: 310160400
I1024 09:40:24.143081 20501 layer_factory.hpp:77] Creating layer pool5
I1024 09:40:24.143087 20501 net.cpp:84] Creating Layer pool5
I1024 09:40:24.143090 20501 net.cpp:406] pool5 <- conv5
I1024 09:40:24.143095 20501 net.cpp:380] pool5 -> pool5
I1024 09:40:24.143107 20501 net.cpp:122] Setting up pool5
I1024 09:40:24.143113 20501 net.cpp:129] Top shape: 30 256 6 6 (276480)
I1024 09:40:24.143117 20501 net.cpp:137] Memory required for data: 311266320
I1024 09:40:24.143121 20501 layer_factory.hpp:77] Creating layer norm5
I1024 09:40:24.143128 20501 net.cpp:84] Creating Layer norm5
I1024 09:40:24.143133 20501 net.cpp:406] norm5 <- pool5
I1024 09:40:24.143142 20501 net.cpp:380] norm5 -> norm5
I1024 09:40:24.143151 20501 net.cpp:122] Setting up norm5
I1024 09:40:24.143157 20501 net.cpp:129] Top shape: 30 256 6 6 (276480)
I1024 09:40:24.143159 20501 net.cpp:137] Memory required for data: 312372240
I1024 09:40:24.143162 20501 layer_factory.hpp:77] Creating layer fc6
I1024 09:40:24.143170 20501 net.cpp:84] Creating Layer fc6
I1024 09:40:24.143174 20501 net.cpp:406] fc6 <- norm5
I1024 09:40:24.143182 20501 net.cpp:380] fc6 -> fc6
I1024 09:40:24.152637 20504 data_layer.cpp:73] Restarting data prefetching from start.
I1024 09:40:24.510028 20501 net.cpp:122] Setting up fc6
I1024 09:40:24.510058 20501 net.cpp:129] Top shape: 30 4096 (122880)
I1024 09:40:24.510062 20501 net.cpp:137] Memory required for data: 312863760
I1024 09:40:24.510089 20501 layer_factory.hpp:77] Creating layer relu6
I1024 09:40:24.510099 20501 net.cpp:84] Creating Layer relu6
I1024 09:40:24.510103 20501 net.cpp:406] relu6 <- fc6
I1024 09:40:24.510110 20501 net.cpp:367] relu6 -> fc6 (in-place)
I1024 09:40:24.510118 20501 net.cpp:122] Setting up relu6
I1024 09:40:24.510123 20501 net.cpp:129] Top shape: 30 4096 (122880)
I1024 09:40:24.510124 20501 net.cpp:137] Memory required for data: 313355280
I1024 09:40:24.510128 20501 layer_factory.hpp:77] Creating layer drop6
I1024 09:40:24.510133 20501 net.cpp:84] Creating Layer drop6
I1024 09:40:24.510136 20501 net.cpp:406] drop6 <- fc6
I1024 09:40:24.510139 20501 net.cpp:367] drop6 -> fc6 (in-place)
I1024 09:40:24.510159 20501 net.cpp:122] Setting up drop6
I1024 09:40:24.510162 20501 net.cpp:129] Top shape: 30 4096 (122880)
I1024 09:40:24.510164 20501 net.cpp:137] Memory required for data: 313846800
I1024 09:40:24.510166 20501 layer_factory.hpp:77] Creating layer fc7
I1024 09:40:24.510174 20501 net.cpp:84] Creating Layer fc7
I1024 09:40:24.510176 20501 net.cpp:406] fc7 <- fc6
I1024 09:40:24.510180 20501 net.cpp:380] fc7 -> fc7
I1024 09:40:24.671149 20501 net.cpp:122] Setting up fc7
I1024 09:40:24.671177 20501 net.cpp:129] Top shape: 30 4096 (122880)
I1024 09:40:24.671181 20501 net.cpp:137] Memory required for data: 314338320
I1024 09:40:24.671191 20501 layer_factory.hpp:77] Creating layer relu7
I1024 09:40:24.671208 20501 net.cpp:84] Creating Layer relu7
I1024 09:40:24.671214 20501 net.cpp:406] relu7 <- fc7
I1024 09:40:24.671223 20501 net.cpp:367] relu7 -> fc7 (in-place)
I1024 09:40:24.671233 20501 net.cpp:122] Setting up relu7
I1024 09:40:24.671238 20501 net.cpp:129] Top shape: 30 4096 (122880)
I1024 09:40:24.671247 20501 net.cpp:137] Memory required for data: 314829840
I1024 09:40:24.671250 20501 layer_factory.hpp:77] Creating layer drop7
I1024 09:40:24.671257 20501 net.cpp:84] Creating Layer drop7
I1024 09:40:24.671262 20501 net.cpp:406] drop7 <- fc7
I1024 09:40:24.671265 20501 net.cpp:367] drop7 -> fc7 (in-place)
I1024 09:40:24.671272 20501 net.cpp:122] Setting up drop7
I1024 09:40:24.671275 20501 net.cpp:129] Top shape: 30 4096 (122880)
I1024 09:40:24.671277 20501 net.cpp:137] Memory required for data: 315321360
I1024 09:40:24.671296 20501 layer_factory.hpp:77] Creating layer fc8
I1024 09:40:24.671304 20501 net.cpp:84] Creating Layer fc8
I1024 09:40:24.671309 20501 net.cpp:406] fc8 <- fc7
I1024 09:40:24.671319 20501 net.cpp:380] fc8 -> fc8
I1024 09:40:24.671852 20501 net.cpp:122] Setting up fc8
I1024 09:40:24.671860 20501 net.cpp:129] Top shape: 30 12 (360)
I1024 09:40:24.671864 20501 net.cpp:137] Memory required for data: 315322800
I1024 09:40:24.671869 20501 layer_factory.hpp:77] Creating layer fc8_fc8_0_split
I1024 09:40:24.671875 20501 net.cpp:84] Creating Layer fc8_fc8_0_split
I1024 09:40:24.671886 20501 net.cpp:406] fc8_fc8_0_split <- fc8
I1024 09:40:24.671893 20501 net.cpp:380] fc8_fc8_0_split -> fc8_fc8_0_split_0
I1024 09:40:24.671905 20501 net.cpp:380] fc8_fc8_0_split -> fc8_fc8_0_split_1
I1024 09:40:24.671917 20501 net.cpp:122] Setting up fc8_fc8_0_split
I1024 09:40:24.671924 20501 net.cpp:129] Top shape: 30 12 (360)
I1024 09:40:24.671931 20501 net.cpp:129] Top shape: 30 12 (360)
I1024 09:40:24.671936 20501 net.cpp:137] Memory required for data: 315325680
I1024 09:40:24.671941 20501 layer_factory.hpp:77] Creating layer accuracy
I1024 09:40:24.671946 20501 net.cpp:84] Creating Layer accuracy
I1024 09:40:24.671949 20501 net.cpp:406] accuracy <- fc8_fc8_0_split_0
I1024 09:40:24.671955 20501 net.cpp:406] accuracy <- label_data_1_split_0
I1024 09:40:24.671967 20501 net.cpp:380] accuracy -> accuracy
…
