…
I1104 10:52:55.993410 12477 net.cpp:294] The NetState phase (0) differed from the phase (1) specified by a rule in layer accuracy
I1104 10:52:55.993562 12477 net.cpp:51] Initializing net from parameters: 
name: "CaffeNet"
state {
  phase: TRAIN
  level: 0
  stage: ""
}
layer {
  name: "data"
  type: "Data"
  top: "data"
  top: "label"
  include {
    phase: TRAIN
  }
  transform_param {
    mirror: true
    crop_size: 227
    mean_file: "/home/neha/Documents/MI/input/mean.binaryproto"
  }
  data_param {
    source: "/home/neha/Documents/MI/input/train_lmdb"
    batch_size: 90
    backend: LMDB
  }
}
layer {
  name: "spatial_pyramid_pooling"
  type: "SPP"
  bottom: "data"
  top: "spatial_pyramid_pooling"
  spp_param {
    pyramid_height: 2
  }
}
layer {
  name: "conv1"
  type: "Convolution"
  bottom: "data"
  top: "conv1"
  param {
    lr_mult: 1
    decay_mult: 1
  }
  param {
    lr_mult: 2
    decay_mult: 0
  }
  convolution_param {
    num_output: 96
    kernel_size: 11
    stride: 4
    weight_filler {
      type: "gaussian"
      std: 0.01
    }
    bias_filler {
      type: "constant"
      value: 0
    }
  }
}
layer {
  name: "relu1"
  type: "ReLU"
  bottom: "conv1"
  top: "conv1"
}
layer {
  name: "pool1"
  type: "Pooling"
  bottom: "conv1"
  top: "pool1"
  pooling_param {
    pool: MAX
    kernel_size: 3
    stride: 2
  }
}
layer {
  name: "norm1"
  type: "LRN"
  bottom: "pool1"
  top: "norm1"
  lrn_param {
    local_size: 5
    alpha: 0.0001
    beta: 0.75
  }
}
layer {
  name: "conv2"
  type: "Convolution"
  bottom: "norm1"
  top: "conv2"
  param {
    lr_mult: 1
    decay_mult: 1
  }
  param {
    lr_mult: 2
    decay_mult: 0
  }
  convolution_param {
    num_output: 256
    pad: 2
    kernel_size: 5
    group: 2
    weight_filler {
      type: "gaussian"
      std: 0.01
    }
    bias_filler {
      type: "constant"
      value: 1
    }
  }
}
layer {
  name: "relu2"
  type: "ReLU"
  bottom: "conv2"
  top: "conv2"
}
layer {
  name: "conv3"
  type: "Convolution"
  bottom: "conv2"
  top: "conv3"
  param {
    lr_mult: 1
    decay_mult: 1
  }
  param {
    lr_mult: 2
    decay_mult: 0
  }
  convolution_param {
    num_output: 384
    pad: 1
    kernel_size: 3
    weight_filler {
      type: "gaussian"
      std: 0.01
    }
    bias_filler {
      type: "constant"
      value: 0
    }
  }
}
layer {
  name: "relu3"
  type: "ReLU"
  bottom: "conv3"
  top: "conv3"
}
layer {
  name: "conv4"
  type: "Convolution"
  bottom: "conv3"
  top: "conv4"
  param {
    lr_mult: 1
    decay_mult: 1
  }
  param {
    lr_mult: 2
    decay_mult: 0
  }
  convolution_param {
    num_output: 384
    pad: 1
    kernel_size: 3
    group: 2
    weight_filler {
      type: "gaussian"
      std: 0.01
    }
    bias_filler {
      type: "constant"
      value: 1
    }
  }
}
layer {
  name: "relu4"
  type: "ReLU"
  bottom: "conv4"
  top: "conv4"
}
layer {
  name: "pool4"
  type: "Pooling"
  bottom: "conv4"
  top: "pool4"
  pooling_param {
    pool: MAX
    kernel_size: 3
    stride: 2
  }
}
layer {
  name: "norm4"
  type: "LRN"
  bottom: "pool4"
  top: "norm4"
  lrn_param {
    local_size: 5
    alpha: 0.0001
    beta: 0.75
  }
}
layer {
  name: "conv5"
  type: "Convolution"
  bottom: "norm4"
  top: "conv5"
  param {
    lr_mult: 1
    decay_mult: 1
  }
  param {
    lr_mult: 2
    decay_mult: 0
  }
  convolution_param {
    num_output: 256
    pad: 1
    kernel_size: 3
    group: 2
    weight_filler {
      type: "gaussian"
      std: 0.01
    }
    bias_filler {
      type: "constant"
      value: 1
    }
  }
}
layer {
  name: "relu5"
  type: "ReLU"
  bottom: "conv5"
  top: "conv5"
}
layer {
  name: "pool5"
  type: "Pooling"
  bottom: "conv5"
  top: "pool5"
  pooling_param {
    pool: MAX
    kernel_size: 3
    stride: 2
  }
}
layer {
  name: "norm5"
  type: "LRN"
  bottom: "pool5"
  top: "norm5"
  lrn_param {
    local_size: 5
    alpha: 0.0001
    beta: 0.75
  }
}
layer {
  name: "fc6"
  type: "InnerProduct"
  bottom: "norm5"
  top: "fc6"
  param {
    lr_mult: 1
    decay_mult: 1
  }
  param {
    lr_mult: 2
    decay_mult: 0
  }
  inner_product_param {
    num_output: 4096
    weight_filler {
      type: "gaussian"
      std: 0.005
    }
    bias_filler {
      type: "constant"
      value: 1
    }
  }
}
layer {
  name: "relu6"
  type: "ReLU"
  bottom: "fc6"
  top: "fc6"
}
layer {
  name: "drop6"
  type: "Dropout"
  bottom: "fc6"
  top: "fc6"
  dropout_param {
    dropout_ratio: 0.5
  }
}
layer {
  name: "fc7"
  type: "InnerProduct"
  bottom: "fc6"
  top: "fc7"
  param {
    lr_mult: 1
    decay_mult: 1
  }
  param {
    lr_mult: 2
    decay_mult: 0
  }
  inner_product_param {
    num_output: 4096
    weight_filler {
      type: "gaussian"
      std: 0.005
    }
    bias_filler {
      type: "constant"
      value: 1
    }
  }
}
layer {
  name: "relu7"
  type: "ReLU"
  bottom: "fc7"
  top: "fc7"
}
layer {
  name: "drop7"
  type: "Dropout"
  bottom: "fc7"
  top: "fc7"
  dropout_param {
    dropout_ratio: 0.5
  }
}
layer {
  name: "fc8"
  type: "InnerProduct"
  bottom: "fc7"
  top: "fc8"
  param {
    lr_mult: 1
    decay_mult: 1
  }
  param {
    lr_mult: 2
    decay_mult: 0
  }
  inner_product_param {
    num_output: 12
    weight_filler {
      type: "gaussian"
      std: 0.01
    }
    bias_filler {
      type: "constant"
      value: 0
    }
  }
}
layer {
  name: "loss"
  type: "SoftmaxWithLoss"
  bottom: "fc8"
  bottom: "label"
  top: "loss"
}
I1104 10:52:55.993675 12477 layer_factory.hpp:77] Creating layer data
I1104 10:52:55.993744 12477 db_lmdb.cpp:35] Opened lmdb /home/neha/Documents/MI/input/train_lmdb
I1104 10:52:55.993774 12477 net.cpp:84] Creating Layer data
I1104 10:52:55.993783 12477 net.cpp:380] data -> data
I1104 10:52:55.993799 12477 net.cpp:380] data -> label
I1104 10:52:55.993814 12477 data_transformer.cpp:25] Loading mean file from: /home/neha/Documents/MI/input/mean.binaryproto
I1104 10:52:55.995276 12477 data_layer.cpp:45] output data size: 90,3,227,227
I1104 10:52:55.995354 12477 net.cpp:122] Setting up data
I1104 10:52:55.995368 12477 net.cpp:129] Top shape: 90 3 227 227 (13912830)
I1104 10:52:55.995374 12477 net.cpp:129] Top shape: 90 (90)
I1104 10:52:55.995379 12477 net.cpp:137] Memory required for data: 55651680
I1104 10:52:55.995389 12477 layer_factory.hpp:77] Creating layer data_data_0_split
I1104 10:52:55.995404 12477 net.cpp:84] Creating Layer data_data_0_split
I1104 10:52:55.995410 12477 net.cpp:406] data_data_0_split <- data
I1104 10:52:55.995438 12477 net.cpp:380] data_data_0_split -> data_data_0_split_0
I1104 10:52:55.995450 12477 net.cpp:380] data_data_0_split -> data_data_0_split_1
I1104 10:52:55.995463 12477 net.cpp:122] Setting up data_data_0_split
I1104 10:52:55.995471 12477 net.cpp:129] Top shape: 90 3 227 227 (13912830)
I1104 10:52:55.995478 12477 net.cpp:129] Top shape: 90 3 227 227 (13912830)
I1104 10:52:55.995483 12477 net.cpp:137] Memory required for data: 166954320
I1104 10:52:55.995488 12477 layer_factory.hpp:77] Creating layer spatial_pyramid_pooling
I1104 10:52:55.995513 12477 net.cpp:84] Creating Layer spatial_pyramid_pooling
I1104 10:52:55.995518 12477 net.cpp:406] spatial_pyramid_pooling <- data_data_0_split_0
I1104 10:52:55.995527 12477 net.cpp:380] spatial_pyramid_pooling -> spatial_pyramid_pooling
I1104 10:52:55.995584 12477 net.cpp:122] Setting up spatial_pyramid_pooling
I1104 10:52:55.995592 12477 net.cpp:129] Top shape: 90 15 (1350)
I1104 10:52:55.995597 12477 net.cpp:137] Memory required for data: 166959720
I1104 10:52:55.995601 12477 layer_factory.hpp:77] Creating layer conv1
I1104 10:52:55.995633 12477 net.cpp:84] Creating Layer conv1
I1104 10:52:55.995640 12477 net.cpp:406] conv1 <- data_data_0_split_1
I1104 10:52:55.995647 12477 net.cpp:380] conv1 -> conv1
I1104 10:52:55.996310 12477 net.cpp:122] Setting up conv1
I1104 10:52:55.996325 12477 net.cpp:129] Top shape: 90 96 55 55 (26136000)
I1104 10:52:55.996330 12477 net.cpp:137] Memory required for data: 271503720
I1104 10:52:55.996352 12477 layer_factory.hpp:77] Creating layer relu1
I1104 10:52:55.996364 12477 net.cpp:84] Creating Layer relu1
I1104 10:52:55.996369 12477 net.cpp:406] relu1 <- conv1
I1104 10:52:55.996377 12477 net.cpp:367] relu1 -> conv1 (in-place)
I1104 10:52:55.996387 12477 net.cpp:122] Setting up relu1
I1104 10:52:55.996394 12477 net.cpp:129] Top shape: 90 96 55 55 (26136000)
I1104 10:52:55.996399 12477 net.cpp:137] Memory required for data: 376047720
I1104 10:52:55.996403 12477 layer_factory.hpp:77] Creating layer pool1
I1104 10:52:55.996412 12477 net.cpp:84] Creating Layer pool1
I1104 10:52:55.996417 12477 net.cpp:406] pool1 <- conv1
I1104 10:52:55.996423 12477 net.cpp:380] pool1 -> pool1
I1104 10:52:55.996436 12477 net.cpp:122] Setting up pool1
I1104 10:52:55.996443 12477 net.cpp:129] Top shape: 90 96 27 27 (6298560)
I1104 10:52:55.996448 12477 net.cpp:137] Memory required for data: 401241960
I1104 10:52:55.996451 12477 layer_factory.hpp:77] Creating layer norm1
I1104 10:52:55.996459 12477 net.cpp:84] Creating Layer norm1
I1104 10:52:55.996464 12477 net.cpp:406] norm1 <- pool1
I1104 10:52:55.996471 12477 net.cpp:380] norm1 -> norm1
I1104 10:52:55.996484 12477 net.cpp:122] Setting up norm1
I1104 10:52:55.996490 12477 net.cpp:129] Top shape: 90 96 27 27 (6298560)
I1104 10:52:55.996495 12477 net.cpp:137] Memory required for data: 426436200
I1104 10:52:55.996498 12477 layer_factory.hpp:77] Creating layer conv2
I1104 10:52:55.996510 12477 net.cpp:84] Creating Layer conv2
I1104 10:52:55.996513 12477 net.cpp:406] conv2 <- norm1
I1104 10:52:55.996521 12477 net.cpp:380] conv2 -> conv2
I1104 10:52:56.002485 12477 net.cpp:122] Setting up conv2
I1104 10:52:56.002506 12477 net.cpp:129] Top shape: 90 256 27 27 (16796160)
I1104 10:52:56.002509 12477 net.cpp:137] Memory required for data: 493620840
I1104 10:52:56.002523 12477 layer_factory.hpp:77] Creating layer relu2
I1104 10:52:56.002537 12477 net.cpp:84] Creating Layer relu2
I1104 10:52:56.002589 12477 net.cpp:406] relu2 <- conv2
I1104 10:52:56.002609 12477 net.cpp:367] relu2 -> conv2 (in-place)
I1104 10:52:56.002622 12477 net.cpp:122] Setting up relu2
I1104 10:52:56.002629 12477 net.cpp:129] Top shape: 90 256 27 27 (16796160)
I1104 10:52:56.002640 12477 net.cpp:137] Memory required for data: 560805480
I1104 10:52:56.002645 12477 layer_factory.hpp:77] Creating layer conv3
I1104 10:52:56.002656 12477 net.cpp:84] Creating Layer conv3
I1104 10:52:56.002661 12477 net.cpp:406] conv3 <- conv2
I1104 10:52:56.002670 12477 net.cpp:380] conv3 -> conv3
I1104 10:52:56.019749 12477 net.cpp:122] Setting up conv3
I1104 10:52:56.019773 12477 net.cpp:129] Top shape: 90 384 27 27 (25194240)
I1104 10:52:56.019778 12477 net.cpp:137] Memory required for data: 661582440
I1104 10:52:56.019794 12477 layer_factory.hpp:77] Creating layer relu3
I1104 10:52:56.019804 12477 net.cpp:84] Creating Layer relu3
I1104 10:52:56.019809 12477 net.cpp:406] relu3 <- conv3
I1104 10:52:56.019815 12477 net.cpp:367] relu3 -> conv3 (in-place)
I1104 10:52:56.019824 12477 net.cpp:122] Setting up relu3
I1104 10:52:56.019829 12477 net.cpp:129] Top shape: 90 384 27 27 (25194240)
I1104 10:52:56.019834 12477 net.cpp:137] Memory required for data: 762359400
I1104 10:52:56.019837 12477 layer_factory.hpp:77] Creating layer conv4
I1104 10:52:56.019850 12477 net.cpp:84] Creating Layer conv4
I1104 10:52:56.019876 12477 net.cpp:406] conv4 <- conv3
I1104 10:52:56.019884 12477 net.cpp:380] conv4 -> conv4
I1104 10:52:56.032307 12477 net.cpp:122] Setting up conv4
I1104 10:52:56.032349 12477 net.cpp:129] Top shape: 90 384 27 27 (25194240)
I1104 10:52:56.032353 12477 net.cpp:137] Memory required for data: 863136360
I1104 10:52:56.032363 12477 layer_factory.hpp:77] Creating layer relu4
I1104 10:52:56.032402 12477 net.cpp:84] Creating Layer relu4
I1104 10:52:56.032446 12477 net.cpp:406] relu4 <- conv4
I1104 10:52:56.032455 12477 net.cpp:367] relu4 -> conv4 (in-place)
I1104 10:52:56.032465 12477 net.cpp:122] Setting up relu4
I1104 10:52:56.032480 12477 net.cpp:129] Top shape: 90 384 27 27 (25194240)
I1104 10:52:56.032490 12477 net.cpp:137] Memory required for data: 963913320
I1104 10:52:56.032495 12477 layer_factory.hpp:77] Creating layer pool4
I1104 10:52:56.032503 12477 net.cpp:84] Creating Layer pool4
I1104 10:52:56.032515 12477 net.cpp:406] pool4 <- conv4
I1104 10:52:56.032522 12477 net.cpp:380] pool4 -> pool4
I1104 10:52:56.032541 12477 net.cpp:122] Setting up pool4
I1104 10:52:56.032549 12477 net.cpp:129] Top shape: 90 384 13 13 (5840640)
I1104 10:52:56.032554 12477 net.cpp:137] Memory required for data: 987275880
I1104 10:52:56.032558 12477 layer_factory.hpp:77] Creating layer norm4
I1104 10:52:56.032567 12477 net.cpp:84] Creating Layer norm4
I1104 10:52:56.032572 12477 net.cpp:406] norm4 <- pool4
I1104 10:52:56.032579 12477 net.cpp:380] norm4 -> norm4
I1104 10:52:56.032590 12477 net.cpp:122] Setting up norm4
I1104 10:52:56.032596 12477 net.cpp:129] Top shape: 90 384 13 13 (5840640)
I1104 10:52:56.032599 12477 net.cpp:137] Memory required for data: 1010638440
I1104 10:52:56.032603 12477 layer_factory.hpp:77] Creating layer conv5
I1104 10:52:56.032625 12477 net.cpp:84] Creating Layer conv5
I1104 10:52:56.032629 12477 net.cpp:406] conv5 <- norm4
I1104 10:52:56.032636 12477 net.cpp:380] conv5 -> conv5
I1104 10:52:56.040871 12477 net.cpp:122] Setting up conv5
I1104 10:52:56.040894 12477 net.cpp:129] Top shape: 90 256 13 13 (3893760)
I1104 10:52:56.040897 12477 net.cpp:137] Memory required for data: 1026213480
I1104 10:52:56.040915 12477 layer_factory.hpp:77] Creating layer relu5
I1104 10:52:56.040931 12477 net.cpp:84] Creating Layer relu5
I1104 10:52:56.040944 12477 net.cpp:406] relu5 <- conv5
I1104 10:52:56.041024 12477 net.cpp:367] relu5 -> conv5 (in-place)
I1104 10:52:56.041043 12477 net.cpp:122] Setting up relu5
I1104 10:52:56.041052 12477 net.cpp:129] Top shape: 90 256 13 13 (3893760)
I1104 10:52:56.041057 12477 net.cpp:137] Memory required for data: 1041788520
I1104 10:52:56.041061 12477 layer_factory.hpp:77] Creating layer pool5
I1104 10:52:56.041069 12477 net.cpp:84] Creating Layer pool5
I1104 10:52:56.041079 12477 net.cpp:406] pool5 <- conv5
I1104 10:52:56.041087 12477 net.cpp:380] pool5 -> pool5
I1104 10:52:56.041106 12477 net.cpp:122] Setting up pool5
I1104 10:52:56.041115 12477 net.cpp:129] Top shape: 90 256 6 6 (829440)
I1104 10:52:56.041119 12477 net.cpp:137] Memory required for data: 1045106280
I1104 10:52:56.041124 12477 layer_factory.hpp:77] Creating layer norm5
I1104 10:52:56.041131 12477 net.cpp:84] Creating Layer norm5
I1104 10:52:56.041138 12477 net.cpp:406] norm5 <- pool5
I1104 10:52:56.041146 12477 net.cpp:380] norm5 -> norm5
I1104 10:52:56.041157 12477 net.cpp:122] Setting up norm5
I1104 10:52:56.041163 12477 net.cpp:129] Top shape: 90 256 6 6 (829440)
I1104 10:52:56.041168 12477 net.cpp:137] Memory required for data: 1048424040
I1104 10:52:56.041172 12477 layer_factory.hpp:77] Creating layer fc6
I1104 10:52:56.041180 12477 net.cpp:84] Creating Layer fc6
I1104 10:52:56.041187 12477 net.cpp:406] fc6 <- norm5
I1104 10:52:56.041193 12477 net.cpp:380] fc6 -> fc6
I1104 10:52:56.720283 12477 net.cpp:122] Setting up fc6
I1104 10:52:56.720314 12477 net.cpp:129] Top shape: 90 4096 (368640)
I1104 10:52:56.720319 12477 net.cpp:137] Memory required for data: 1049898600
I1104 10:52:56.720331 12477 layer_factory.hpp:77] Creating layer relu6
I1104 10:52:56.720360 12477 net.cpp:84] Creating Layer relu6
I1104 10:52:56.720366 12477 net.cpp:406] relu6 <- fc6
I1104 10:52:56.720389 12477 net.cpp:367] relu6 -> fc6 (in-place)
I1104 10:52:56.720407 12477 net.cpp:122] Setting up relu6
I1104 10:52:56.720413 12477 net.cpp:129] Top shape: 90 4096 (368640)
I1104 10:52:56.720417 12477 net.cpp:137] Memory required for data: 1051373160
I1104 10:52:56.720420 12477 layer_factory.hpp:77] Creating layer drop6
I1104 10:52:56.720458 12477 net.cpp:84] Creating Layer drop6
I1104 10:52:56.720463 12477 net.cpp:406] drop6 <- fc6
I1104 10:52:56.720469 12477 net.cpp:367] drop6 -> fc6 (in-place)
I1104 10:52:56.720484 12477 net.cpp:122] Setting up drop6
I1104 10:52:56.720490 12477 net.cpp:129] Top shape: 90 4096 (368640)
I1104 10:52:56.720494 12477 net.cpp:137] Memory required for data: 1052847720
I1104 10:52:56.720499 12477 layer_factory.hpp:77] Creating layer fc7
I1104 10:52:56.720508 12477 net.cpp:84] Creating Layer fc7
I1104 10:52:56.720515 12477 net.cpp:406] fc7 <- fc6
I1104 10:52:56.720521 12477 net.cpp:380] fc7 -> fc7
I1104 10:52:57.019877 12477 net.cpp:122] Setting up fc7
I1104 10:52:57.019911 12477 net.cpp:129] Top shape: 90 4096 (368640)
I1104 10:52:57.019914 12477 net.cpp:137] Memory required for data: 1054322280
I1104 10:52:57.019927 12477 layer_factory.hpp:77] Creating layer relu7
I1104 10:52:57.019955 12477 net.cpp:84] Creating Layer relu7
I1104 10:52:57.019961 12477 net.cpp:406] relu7 <- fc7
I1104 10:52:57.019976 12477 net.cpp:367] relu7 -> fc7 (in-place)
I1104 10:52:57.020002 12477 net.cpp:122] Setting up relu7
I1104 10:52:57.020009 12477 net.cpp:129] Top shape: 90 4096 (368640)
I1104 10:52:57.020011 12477 net.cpp:137] Memory required for data: 1055796840
I1104 10:52:57.020015 12477 layer_factory.hpp:77] Creating layer drop7
I1104 10:52:57.020021 12477 net.cpp:84] Creating Layer drop7
I1104 10:52:57.020025 12477 net.cpp:406] drop7 <- fc7
I1104 10:52:57.020030 12477 net.cpp:367] drop7 -> fc7 (in-place)
I1104 10:52:57.020036 12477 net.cpp:122] Setting up drop7
I1104 10:52:57.020043 12477 net.cpp:129] Top shape: 90 4096 (368640)
I1104 10:52:57.020046 12477 net.cpp:137] Memory required for data: 1057271400
I1104 10:52:57.020051 12477 layer_factory.hpp:77] Creating layer fc8
I1104 10:52:57.020059 12477 net.cpp:84] Creating Layer fc8
I1104 10:52:57.020068 12477 net.cpp:406] fc8 <- fc7
I1104 10:52:57.020077 12477 net.cpp:380] fc8 -> fc8
I1104 10:52:57.021029 12477 net.cpp:122] Setting up fc8
I1104 10:52:57.021040 12477 net.cpp:129] Top shape: 90 12 (1080)
I1104 10:52:57.021044 12477 net.cpp:137] Memory required for data: 1057275720
I1104 10:52:57.021054 12477 layer_factory.hpp:77] Creating layer loss
I1104 10:52:57.021080 12477 net.cpp:84] Creating Layer loss
I1104 10:52:57.021085 12477 net.cpp:406] loss <- fc8
I1104 10:52:57.021090 12477 net.cpp:406] loss <- label
I1104 10:52:57.021100 12477 net.cpp:380] loss -> loss
I1104 10:52:57.021126 12477 layer_factory.hpp:77] Creating layer loss
…
I1104 10:52:57.021756 12477 net.cpp:294] The NetState phase (1) differed from the phase (0) specified by a rule in layer data
I1104 10:52:57.021922 12477 net.cpp:51] Initializing net from parameters: 
name: "CaffeNet"
state {
  phase: TEST
}
layer {
  name: "data"
  type: "Data"
  top: "data"
  top: "label"
  include {
    phase: TEST
  }
  transform_param {
    mirror: false
    crop_size: 227
    mean_file: "/home/neha/Documents/MI/input/mean.binaryproto"
  }
  data_param {
    source: "/home/neha/Documents/MI/input/validation_lmdb"
    batch_size: 30
    backend: LMDB
  }
}
layer {
  name: "spatial_pyramid_pooling"
  type: "SPP"
  bottom: "data"
  top: "spatial_pyramid_pooling"
  spp_param {
    pyramid_height: 2
  }
}
layer {
  name: "conv1"
  type: "Convolution"
  bottom: "data"
  top: "conv1"
  param {
    lr_mult: 1
    decay_mult: 1
  }
  param {
    lr_mult: 2
    decay_mult: 0
  }
  convolution_param {
    num_output: 96
    kernel_size: 11
    stride: 4
    weight_filler {
      type: "gaussian"
      std: 0.01
    }
    bias_filler {
      type: "constant"
      value: 0
    }
  }
}
layer {
  name: "relu1"
  type: "ReLU"
  bottom: "conv1"
  top: "conv1"
}
layer {
  name: "pool1"
  type: "Pooling"
  bottom: "conv1"
  top: "pool1"
  pooling_param {
    pool: MAX
    kernel_size: 3
    stride: 2
  }
}
layer {
  name: "norm1"
  type: "LRN"
  bottom: "pool1"
  top: "norm1"
  lrn_param {
    local_size: 5
    alpha: 0.0001
    beta: 0.75
  }
}
layer {
  name: "conv2"
  type: "Convolution"
  bottom: "norm1"
  top: "conv2"
  param {
    lr_mult: 1
    decay_mult: 1
  }
  param {
    lr_mult: 2
    decay_mult: 0
  }
  convolution_param {
    num_output: 256
    pad: 2
    kernel_size: 5
    group: 2
    weight_filler {
      type: "gaussian"
      std: 0.01
    }
    bias_filler {
      type: "constant"
      value: 1
    }
  }
}
layer {
  name: "relu2"
  type: "ReLU"
  bottom: "conv2"
  top: "conv2"
}
layer {
  name: "conv3"
  type: "Convolution"
  bottom: "conv2"
  top: "conv3"
  param {
    lr_mult: 1
    decay_mult: 1
  }
  param {
    lr_mult: 2
    decay_mult: 0
  }
  convolution_param {
    num_output: 384
    pad: 1
    kernel_size: 3
    weight_filler {
      type: "gaussian"
      std: 0.01
    }
    bias_filler {
      type: "constant"
      value: 0
    }
  }
}
layer {
  name: "relu3"
  type: "ReLU"
  bottom: "conv3"
  top: "conv3"
}
layer {
  name: "conv4"
  type: "Convolution"
  bottom: "conv3"
  top: "conv4"
  param {
    lr_mult: 1
    decay_mult: 1
  }
  param {
    lr_mult: 2
    decay_mult: 0
  }
  convolution_param {
    num_output: 384
    pad: 1
    kernel_size: 3
    group: 2
    weight_filler {
      type: "gaussian"
      std: 0.01
    }
    bias_filler {
      type: "constant"
      value: 1
    }
  }
}
layer {
  name: "relu4"
  type: "ReLU"
  bottom: "conv4"
  top: "conv4"
}
layer {
  name: "pool4"
  type: "Pooling"
  bottom: "conv4"
  top: "pool4"
  pooling_param {
    pool: MAX
    kernel_size: 3
    stride: 2
  }
}
layer {
  name: "norm4"
  type: "LRN"
  bottom: "pool4"
  top: "norm4"
  lrn_param {
    local_size: 5
    alpha: 0.0001
    beta: 0.75
  }
}
layer {
  name: "conv5"
  type: "Convolution"
  bottom: "norm4"
  top: "conv5"
  param {
    lr_mult: 1
    decay_mult: 1
  }
  param {
    lr_mult: 2
    decay_mult: 0
  }
  convolution_param {
    num_output: 256
    pad: 1
    kernel_size: 3
    group: 2
    weight_filler {
      type: "gaussian"
      std: 0.01
    }
    bias_filler {
      type: "constant"
      value: 1
    }
  }
}
layer {
  name: "relu5"
  type: "ReLU"
  bottom: "conv5"
  top: "conv5"
}
layer {
  name: "pool5"
  type: "Pooling"
  bottom: "conv5"
  top: "pool5"
  pooling_param {
    pool: MAX
    kernel_size: 3
    stride: 2
  }
}
layer {
  name: "norm5"
  type: "LRN"
  bottom: "pool5"
  top: "norm5"
  lrn_param {
    local_size: 5
    alpha: 0.0001
    beta: 0.75
  }
}
layer {
  name: "fc6"
  type: "InnerProduct"
  bottom: "norm5"
  top: "fc6"
  param {
    lr_mult: 1
    decay_mult: 1
  }
  param {
    lr_mult: 2
    decay_mult: 0
  }
  inner_product_param {
    num_output: 4096
    weight_filler {
      type: "gaussian"
      std: 0.005
    }
    bias_filler {
      type: "constant"
      value: 1
    }
  }
}
layer {
  name: "relu6"
  type: "ReLU"
  bottom: "fc6"
  top: "fc6"
}
layer {
  name: "drop6"
  type: "Dropout"
  bottom: "fc6"
  top: "fc6"
  dropout_param {
    dropout_ratio: 0.5
  }
}
layer {
  name: "fc7"
  type: "InnerProduct"
  bottom: "fc6"
  top: "fc7"
  param {
    lr_mult: 1
    decay_mult: 1
  }
  param {
    lr_mult: 2
    decay_mult: 0
  }
  inner_product_param {
    num_output: 4096
    weight_filler {
      type: "gaussian"
      std: 0.005
    }
    bias_filler {
      type: "constant"
      value: 1
    }
  }
}
layer {
  name: "relu7"
  type: "ReLU"
  bottom: "fc7"
  top: "fc7"
}
layer {
  name: "drop7"
  type: "Dropout"
  bottom: "fc7"
  top: "fc7"
  dropout_param {
    dropout_ratio: 0.5
  }
}
layer {
  name: "fc8"
  type: "InnerProduct"
  bottom: "fc7"
  top: "fc8"
  param {
    lr_mult: 1
    decay_mult: 1
  }
  param {
    lr_mult: 2
    decay_mult: 0
  }
  inner_product_param {
    num_output: 12
    weight_filler {
      type: "gaussian"
      std: 0.01
    }
    bias_filler {
      type: "constant"
      value: 0
    }
  }
}
layer {
  name: "accuracy"
  type: "Accuracy"
  bottom: "fc8"
  bottom: "label"
  top: "accuracy"
  include {
    phase: TEST
  }
}
layer {
  name: "loss"
  type: "SoftmaxWithLoss"
  bottom: "fc8"
  bottom: "label"
  top: "loss"
}
I1104 10:52:57.022073 12477 layer_factory.hpp:77] Creating layer data
I1104 10:52:57.022126 12477 db_lmdb.cpp:35] Opened lmdb /home/neha/Documents/MI/input/validation_lmdb
I1104 10:52:57.022148 12477 net.cpp:84] Creating Layer data
I1104 10:52:57.022159 12477 net.cpp:380] data -> data
I1104 10:52:57.022169 12477 net.cpp:380] data -> label
I1104 10:52:57.022178 12477 data_transformer.cpp:25] Loading mean file from: /home/neha/Documents/MI/input/mean.binaryproto
I1104 10:52:57.023409 12477 data_layer.cpp:45] output data size: 30,3,227,227
I1104 10:52:57.023483 12477 net.cpp:122] Setting up data
I1104 10:52:57.023494 12477 net.cpp:129] Top shape: 30 3 227 227 (4637610)
I1104 10:52:57.023499 12477 net.cpp:129] Top shape: 30 (30)
I1104 10:52:57.023504 12477 net.cpp:137] Memory required for data: 18550560
I1104 10:52:57.023509 12477 layer_factory.hpp:77] Creating layer data_data_0_split
I1104 10:52:57.023522 12477 net.cpp:84] Creating Layer data_data_0_split
I1104 10:52:57.023528 12477 net.cpp:406] data_data_0_split <- data
I1104 10:52:57.023536 12477 net.cpp:380] data_data_0_split -> data_data_0_split_0
I1104 10:52:57.023548 12477 net.cpp:380] data_data_0_split -> data_data_0_split_1
I1104 10:52:57.023560 12477 net.cpp:122] Setting up data_data_0_split
I1104 10:52:57.023567 12477 net.cpp:129] Top shape: 30 3 227 227 (4637610)
I1104 10:52:57.023576 12477 net.cpp:129] Top shape: 30 3 227 227 (4637610)
I1104 10:52:57.023579 12477 net.cpp:137] Memory required for data: 55651440
I1104 10:52:57.023594 12477 layer_factory.hpp:77] Creating layer label_data_1_split
I1104 10:52:57.023602 12477 net.cpp:84] Creating Layer label_data_1_split
I1104 10:52:57.023608 12477 net.cpp:406] label_data_1_split <- label
I1104 10:52:57.023615 12477 net.cpp:380] label_data_1_split -> label_data_1_split_0
I1104 10:52:57.023625 12477 net.cpp:380] label_data_1_split -> label_data_1_split_1
I1104 10:52:57.023635 12477 net.cpp:122] Setting up label_data_1_split
I1104 10:52:57.023641 12477 net.cpp:129] Top shape: 30 (30)
I1104 10:52:57.023648 12477 net.cpp:129] Top shape: 30 (30)
I1104 10:52:57.023653 12477 net.cpp:137] Memory required for data: 55651680
I1104 10:52:57.023656 12477 layer_factory.hpp:77] Creating layer spatial_pyramid_pooling
I1104 10:52:57.023664 12477 net.cpp:84] Creating Layer spatial_pyramid_pooling
I1104 10:52:57.023670 12477 net.cpp:406] spatial_pyramid_pooling <- data_data_0_split_0
I1104 10:52:57.023677 12477 net.cpp:380] spatial_pyramid_pooling -> spatial_pyramid_pooling
I1104 10:52:57.023713 12477 net.cpp:122] Setting up spatial_pyramid_pooling
I1104 10:52:57.023720 12477 net.cpp:129] Top shape: 30 15 (450)
I1104 10:52:57.023725 12477 net.cpp:137] Memory required for data: 55653480
I1104 10:52:57.023728 12477 layer_factory.hpp:77] Creating layer conv1
I1104 10:52:57.023742 12477 net.cpp:84] Creating Layer conv1
I1104 10:52:57.023747 12477 net.cpp:406] conv1 <- data_data_0_split_1
I1104 10:52:57.023756 12477 net.cpp:380] conv1 -> conv1
I1104 10:52:57.024114 12477 net.cpp:122] Setting up conv1
I1104 10:52:57.024122 12477 net.cpp:129] Top shape: 30 96 55 55 (8712000)
I1104 10:52:57.024127 12477 net.cpp:137] Memory required for data: 90501480
I1104 10:52:57.024139 12477 layer_factory.hpp:77] Creating layer relu1
I1104 10:52:57.024147 12477 net.cpp:84] Creating Layer relu1
I1104 10:52:57.024153 12477 net.cpp:406] relu1 <- conv1
I1104 10:52:57.024160 12477 net.cpp:367] relu1 -> conv1 (in-place)
I1104 10:52:57.024170 12477 net.cpp:122] Setting up relu1
I1104 10:52:57.024178 12477 net.cpp:129] Top shape: 30 96 55 55 (8712000)
I1104 10:52:57.024183 12477 net.cpp:137] Memory required for data: 125349480
I1104 10:52:57.024186 12477 layer_factory.hpp:77] Creating layer pool1
I1104 10:52:57.024194 12477 net.cpp:84] Creating Layer pool1
I1104 10:52:57.024199 12477 net.cpp:406] pool1 <- conv1
I1104 10:52:57.024207 12477 net.cpp:380] pool1 -> pool1
I1104 10:52:57.024220 12477 net.cpp:122] Setting up pool1
I1104 10:52:57.024227 12477 net.cpp:129] Top shape: 30 96 27 27 (2099520)
I1104 10:52:57.024232 12477 net.cpp:137] Memory required for data: 133747560
I1104 10:52:57.024236 12477 layer_factory.hpp:77] Creating layer norm1
I1104 10:52:57.024243 12477 net.cpp:84] Creating Layer norm1
I1104 10:52:57.024250 12477 net.cpp:406] norm1 <- pool1
I1104 10:52:57.024256 12477 net.cpp:380] norm1 -> norm1
I1104 10:52:57.024267 12477 net.cpp:122] Setting up norm1
I1104 10:52:57.024274 12477 net.cpp:129] Top shape: 30 96 27 27 (2099520)
I1104 10:52:57.024278 12477 net.cpp:137] Memory required for data: 142145640
I1104 10:52:57.024282 12477 layer_factory.hpp:77] Creating layer conv2
I1104 10:52:57.024293 12477 net.cpp:84] Creating Layer conv2
I1104 10:52:57.024298 12477 net.cpp:406] conv2 <- norm1
I1104 10:52:57.024307 12477 net.cpp:380] conv2 -> conv2
I1104 10:52:57.028143 12477 net.cpp:122] Setting up conv2
I1104 10:52:57.028170 12477 net.cpp:129] Top shape: 30 256 27 27 (5598720)
I1104 10:52:57.028175 12477 net.cpp:137] Memory required for data: 164540520
I1104 10:52:57.028195 12477 layer_factory.hpp:77] Creating layer relu2
I1104 10:52:57.028211 12477 net.cpp:84] Creating Layer relu2
I1104 10:52:57.028218 12477 net.cpp:406] relu2 <- conv2
I1104 10:52:57.028226 12477 net.cpp:367] relu2 -> conv2 (in-place)
I1104 10:52:57.028236 12477 net.cpp:122] Setting up relu2
I1104 10:52:57.028244 12477 net.cpp:129] Top shape: 30 256 27 27 (5598720)
I1104 10:52:57.028249 12477 net.cpp:137] Memory required for data: 186935400
I1104 10:52:57.028252 12477 layer_factory.hpp:77] Creating layer conv3
I1104 10:52:57.028265 12477 net.cpp:84] Creating Layer conv3
I1104 10:52:57.028280 12477 net.cpp:406] conv3 <- conv2
I1104 10:52:57.028290 12477 net.cpp:380] conv3 -> conv3
I1104 10:52:57.038648 12477 net.cpp:122] Setting up conv3
I1104 10:52:57.038681 12477 net.cpp:129] Top shape: 30 384 27 27 (8398080)
I1104 10:52:57.038684 12477 net.cpp:137] Memory required for data: 220527720
I1104 10:52:57.038702 12477 layer_factory.hpp:77] Creating layer relu3
I1104 10:52:57.038713 12477 net.cpp:84] Creating Layer relu3
I1104 10:52:57.038722 12477 net.cpp:406] relu3 <- conv3
I1104 10:52:57.038730 12477 net.cpp:367] relu3 -> conv3 (in-place)
I1104 10:52:57.038772 12477 net.cpp:122] Setting up relu3
I1104 10:52:57.038779 12477 net.cpp:129] Top shape: 30 384 27 27 (8398080)
I1104 10:52:57.038784 12477 net.cpp:137] Memory required for data: 254120040
I1104 10:52:57.038789 12477 layer_factory.hpp:77] Creating layer conv4
I1104 10:52:57.038802 12477 net.cpp:84] Creating Layer conv4
I1104 10:52:57.038810 12477 net.cpp:406] conv4 <- conv3
I1104 10:52:57.038820 12477 net.cpp:380] conv4 -> conv4
I1104 10:52:57.045778 12477 net.cpp:122] Setting up conv4
I1104 10:52:57.045799 12477 net.cpp:129] Top shape: 30 384 27 27 (8398080)
I1104 10:52:57.045804 12477 net.cpp:137] Memory required for data: 287712360
I1104 10:52:57.045815 12477 layer_factory.hpp:77] Creating layer relu4
I1104 10:52:57.045827 12477 net.cpp:84] Creating Layer relu4
I1104 10:52:57.045833 12477 net.cpp:406] relu4 <- conv4
I1104 10:52:57.045841 12477 net.cpp:367] relu4 -> conv4 (in-place)
I1104 10:52:57.045868 12477 net.cpp:122] Setting up relu4
I1104 10:52:57.045879 12477 net.cpp:129] Top shape: 30 384 27 27 (8398080)
I1104 10:52:57.045884 12477 net.cpp:137] Memory required for data: 321304680
I1104 10:52:57.045889 12477 layer_factory.hpp:77] Creating layer pool4
I1104 10:52:57.045897 12477 net.cpp:84] Creating Layer pool4
I1104 10:52:57.045905 12477 net.cpp:406] pool4 <- conv4
I1104 10:52:57.045913 12477 net.cpp:380] pool4 -> pool4
I1104 10:52:57.045933 12477 net.cpp:122] Setting up pool4
I1104 10:52:57.045940 12477 net.cpp:129] Top shape: 30 384 13 13 (1946880)
I1104 10:52:57.045945 12477 net.cpp:137] Memory required for data: 329092200
I1104 10:52:57.045949 12477 layer_factory.hpp:77] Creating layer norm4
I1104 10:52:57.045958 12477 net.cpp:84] Creating Layer norm4
I1104 10:52:57.045963 12477 net.cpp:406] norm4 <- pool4
I1104 10:52:57.045969 12477 net.cpp:380] norm4 -> norm4
I1104 10:52:57.045982 12477 net.cpp:122] Setting up norm4
I1104 10:52:57.045991 12477 net.cpp:129] Top shape: 30 384 13 13 (1946880)
I1104 10:52:57.045994 12477 net.cpp:137] Memory required for data: 336879720
I1104 10:52:57.045999 12477 layer_factory.hpp:77] Creating layer conv5
I1104 10:52:57.046025 12477 net.cpp:84] Creating Layer conv5
I1104 10:52:57.046030 12477 net.cpp:406] conv5 <- norm4
I1104 10:52:57.046038 12477 net.cpp:380] conv5 -> conv5
I1104 10:52:57.051081 12477 net.cpp:122] Setting up conv5
I1104 10:52:57.051106 12477 net.cpp:129] Top shape: 30 256 13 13 (1297920)
I1104 10:52:57.051111 12477 net.cpp:137] Memory required for data: 342071400
I1104 10:52:57.051127 12477 layer_factory.hpp:77] Creating layer relu5
I1104 10:52:57.051141 12477 net.cpp:84] Creating Layer relu5
I1104 10:52:57.051147 12477 net.cpp:406] relu5 <- conv5
I1104 10:52:57.051156 12477 net.cpp:367] relu5 -> conv5 (in-place)
I1104 10:52:57.051205 12477 net.cpp:122] Setting up relu5
I1104 10:52:57.051218 12477 net.cpp:129] Top shape: 30 256 13 13 (1297920)
I1104 10:52:57.051223 12477 net.cpp:137] Memory required for data: 347263080
I1104 10:52:57.051226 12477 layer_factory.hpp:77] Creating layer pool5
I1104 10:52:57.051234 12477 net.cpp:84] Creating Layer pool5
I1104 10:52:57.051239 12477 net.cpp:406] pool5 <- conv5
I1104 10:52:57.051246 12477 net.cpp:380] pool5 -> pool5
I1104 10:52:57.051259 12477 net.cpp:122] Setting up pool5
I1104 10:52:57.051265 12477 net.cpp:129] Top shape: 30 256 6 6 (276480)
I1104 10:52:57.051268 12477 net.cpp:137] Memory required for data: 348369000
I1104 10:52:57.051272 12477 layer_factory.hpp:77] Creating layer norm5
I1104 10:52:57.051298 12477 net.cpp:84] Creating Layer norm5
I1104 10:52:57.051302 12477 net.cpp:406] norm5 <- pool5
I1104 10:52:57.051308 12477 net.cpp:380] norm5 -> norm5
I1104 10:52:57.051318 12477 net.cpp:122] Setting up norm5
I1104 10:52:57.051323 12477 net.cpp:129] Top shape: 30 256 6 6 (276480)
I1104 10:52:57.051326 12477 net.cpp:137] Memory required for data: 349474920
I1104 10:52:57.051329 12477 layer_factory.hpp:77] Creating layer fc6
I1104 10:52:57.051337 12477 net.cpp:84] Creating Layer fc6
I1104 10:52:57.051340 12477 net.cpp:406] fc6 <- norm5
I1104 10:52:57.051348 12477 net.cpp:380] fc6 -> fc6
I1104 10:52:57.066066 12480 data_layer.cpp:73] Restarting data prefetching from start.
I1104 10:52:57.435828 12477 net.cpp:122] Setting up fc6
I1104 10:52:57.435858 12477 net.cpp:129] Top shape: 30 4096 (122880)
I1104 10:52:57.435861 12477 net.cpp:137] Memory required for data: 349966440
I1104 10:52:57.435891 12477 layer_factory.hpp:77] Creating layer relu6
I1104 10:52:57.435907 12477 net.cpp:84] Creating Layer relu6
I1104 10:52:57.435914 12477 net.cpp:406] relu6 <- fc6
I1104 10:52:57.435936 12477 net.cpp:367] relu6 -> fc6 (in-place)
I1104 10:52:57.435950 12477 net.cpp:122] Setting up relu6
I1104 10:52:57.435956 12477 net.cpp:129] Top shape: 30 4096 (122880)
I1104 10:52:57.435959 12477 net.cpp:137] Memory required for data: 350457960
I1104 10:52:57.435963 12477 layer_factory.hpp:77] Creating layer drop6
I1104 10:52:57.435971 12477 net.cpp:84] Creating Layer drop6
I1104 10:52:57.435976 12477 net.cpp:406] drop6 <- fc6
I1104 10:52:57.435981 12477 net.cpp:367] drop6 -> fc6 (in-place)
I1104 10:52:57.435988 12477 net.cpp:122] Setting up drop6
I1104 10:52:57.435994 12477 net.cpp:129] Top shape: 30 4096 (122880)
I1104 10:52:57.435998 12477 net.cpp:137] Memory required for data: 350949480
I1104 10:52:57.436002 12477 layer_factory.hpp:77] Creating layer fc7
I1104 10:52:57.436012 12477 net.cpp:84] Creating Layer fc7
I1104 10:52:57.436017 12477 net.cpp:406] fc7 <- fc6
I1104 10:52:57.436027 12477 net.cpp:380] fc7 -> fc7
I1104 10:52:57.607283 12477 net.cpp:122] Setting up fc7
I1104 10:52:57.607318 12477 net.cpp:129] Top shape: 30 4096 (122880)
I1104 10:52:57.607323 12477 net.cpp:137] Memory required for data: 351441000
I1104 10:52:57.607337 12477 layer_factory.hpp:77] Creating layer relu7
I1104 10:52:57.607350 12477 net.cpp:84] Creating Layer relu7
I1104 10:52:57.607357 12477 net.cpp:406] relu7 <- fc7
I1104 10:52:57.607367 12477 net.cpp:367] relu7 -> fc7 (in-place)
I1104 10:52:57.607378 12477 net.cpp:122] Setting up relu7
I1104 10:52:57.607384 12477 net.cpp:129] Top shape: 30 4096 (122880)
I1104 10:52:57.607388 12477 net.cpp:137] Memory required for data: 351932520
I1104 10:52:57.607393 12477 layer_factory.hpp:77] Creating layer drop7
I1104 10:52:57.607403 12477 net.cpp:84] Creating Layer drop7
I1104 10:52:57.607430 12477 net.cpp:406] drop7 <- fc7
I1104 10:52:57.607437 12477 net.cpp:367] drop7 -> fc7 (in-place)
I1104 10:52:57.607446 12477 net.cpp:122] Setting up drop7
I1104 10:52:57.607453 12477 net.cpp:129] Top shape: 30 4096 (122880)
I1104 10:52:57.607458 12477 net.cpp:137] Memory required for data: 352424040
I1104 10:52:57.607462 12477 layer_factory.hpp:77] Creating layer fc8
I1104 10:52:57.607470 12477 net.cpp:84] Creating Layer fc8
I1104 10:52:57.607475 12477 net.cpp:406] fc8 <- fc7
I1104 10:52:57.607481 12477 net.cpp:380] fc8 -> fc8
I1104 10:52:57.608078 12477 net.cpp:122] Setting up fc8
I1104 10:52:57.608088 12477 net.cpp:129] Top shape: 30 12 (360)
I1104 10:52:57.608091 12477 net.cpp:137] Memory required for data: 352425480
I1104 10:52:57.608099 12477 layer_factory.hpp:77] Creating layer fc8_fc8_0_split
I1104 10:52:57.608108 12477 net.cpp:84] Creating Layer fc8_fc8_0_split
I1104 10:52:57.608113 12477 net.cpp:406] fc8_fc8_0_split <- fc8
I1104 10:52:57.608121 12477 net.cpp:380] fc8_fc8_0_split -> fc8_fc8_0_split_0
I1104 10:52:57.608130 12477 net.cpp:380] fc8_fc8_0_split -> fc8_fc8_0_split_1
I1104 10:52:57.608140 12477 net.cpp:122] Setting up fc8_fc8_0_split
I1104 10:52:57.608147 12477 net.cpp:129] Top shape: 30 12 (360)
I1104 10:52:57.608170 12477 net.cpp:129] Top shape: 30 12 (360)
I1104 10:52:57.608175 12477 net.cpp:137] Memory required for data: 352428360
I1104 10:52:57.608178 12477 layer_factory.hpp:77] Creating layer accuracy
I1104 10:52:57.608188 12477 net.cpp:84] Creating Layer accuracy
I1104 10:52:57.608194 12477 net.cpp:406] accuracy <- fc8_fc8_0_split_0
I1104 10:52:57.608201 12477 net.cpp:406] accuracy <- label_data_1_split_0
I1104 10:52:57.608207 12477 net.cpp:380] accuracy -> accuracy
…
