…
I1104 11:34:38.252559 13403 net.cpp:294] The NetState phase (0) differed from the phase (1) specified by a rule in layer accuracy
I1104 11:34:38.252749 13403 net.cpp:51] Initializing net from parameters: 
name: "CaffeNet"
state {
  phase: TRAIN
  level: 0
  stage: ""
}
layer {
  name: "data"
  type: "Data"
  top: "data"
  top: "label"
  include {
    phase: TRAIN
  }
  transform_param {
    mirror: true
    crop_size: 227
    mean_file: "/home/neha/Documents/MI/input2/mean.binaryproto"
  }
  data_param {
    source: "/home/neha/Documents/MI/input2/train_lmdb"
    batch_size: 90
    backend: LMDB
  }
}
layer {
  name: "spatial_pyramid_pooling"
  type: "SPP"
  bottom: "data"
  top: "spatial_pyramid_pooling"
  spp_param {
    pyramid_height: 2
  }
}
layer {
  name: "conv1"
  type: "Convolution"
  bottom: "data"
  top: "conv1"
  param {
    lr_mult: 1
    decay_mult: 1
  }
  param {
    lr_mult: 2
    decay_mult: 0
  }
  convolution_param {
    num_output: 96
    kernel_size: 11
    stride: 4
    weight_filler {
      type: "gaussian"
      std: 0.01
    }
    bias_filler {
      type: "constant"
      value: 0
    }
  }
}
layer {
  name: "relu1"
  type: "ReLU"
  bottom: "conv1"
  top: "conv1"
}
layer {
  name: "pool1"
  type: "Pooling"
  bottom: "conv1"
  top: "pool1"
  pooling_param {
    pool: MAX
    kernel_size: 3
    stride: 2
  }
}
layer {
  name: "norm1"
  type: "LRN"
  bottom: "pool1"
  top: "norm1"
  lrn_param {
    local_size: 5
    alpha: 0.0001
    beta: 0.75
  }
}
layer {
  name: "conv2"
  type: "Convolution"
  bottom: "norm1"
  top: "conv2"
  param {
    lr_mult: 1
    decay_mult: 1
  }
  param {
    lr_mult: 2
    decay_mult: 0
  }
  convolution_param {
    num_output: 256
    pad: 2
    kernel_size: 5
    group: 2
    weight_filler {
      type: "gaussian"
      std: 0.01
    }
    bias_filler {
      type: "constant"
      value: 1
    }
  }
}
layer {
  name: "relu2"
  type: "ReLU"
  bottom: "conv2"
  top: "conv2"
}
layer {
  name: "conv3"
  type: "Convolution"
  bottom: "conv2"
  top: "conv3"
  param {
    lr_mult: 1
    decay_mult: 1
  }
  param {
    lr_mult: 2
    decay_mult: 0
  }
  convolution_param {
    num_output: 384
    pad: 1
    kernel_size: 3
    weight_filler {
      type: "gaussian"
      std: 0.01
    }
    bias_filler {
      type: "constant"
      value: 0
    }
  }
}
layer {
  name: "relu3"
  type: "ReLU"
  bottom: "conv3"
  top: "conv3"
}
layer {
  name: "conv4"
  type: "Convolution"
  bottom: "conv3"
  top: "conv4"
  param {
    lr_mult: 1
    decay_mult: 1
  }
  param {
    lr_mult: 2
    decay_mult: 0
  }
  convolution_param {
    num_output: 384
    pad: 1
    kernel_size: 3
    group: 2
    weight_filler {
      type: "gaussian"
      std: 0.01
    }
    bias_filler {
      type: "constant"
      value: 1
    }
  }
}
layer {
  name: "relu4"
  type: "ReLU"
  bottom: "conv4"
  top: "conv4"
}
layer {
  name: "pool4"
  type: "Pooling"
  bottom: "conv4"
  top: "pool4"
  pooling_param {
    pool: MAX
    kernel_size: 3
    stride: 2
  }
}
layer {
  name: "norm4"
  type: "LRN"
  bottom: "pool4"
  top: "norm4"
  lrn_param {
    local_size: 5
    alpha: 0.0001
    beta: 0.75
  }
}
layer {
  name: "conv5"
  type: "Convolution"
  bottom: "norm4"
  top: "conv5"
  param {
    lr_mult: 1
    decay_mult: 1
  }
  param {
    lr_mult: 2
    decay_mult: 0
  }
  convolution_param {
    num_output: 256
    pad: 1
    kernel_size: 3
    group: 2
    weight_filler {
      type: "gaussian"
      std: 0.01
    }
    bias_filler {
      type: "constant"
      value: 1
    }
  }
}
layer {
  name: "relu5"
  type: "ReLU"
  bottom: "conv5"
  top: "conv5"
}
layer {
  name: "pool5"
  type: "Pooling"
  bottom: "conv5"
  top: "pool5"
  pooling_param {
    pool: MAX
    kernel_size: 3
    stride: 2
  }
}
layer {
  name: "norm5"
  type: "LRN"
  bottom: "pool5"
  top: "norm5"
  lrn_param {
    local_size: 5
    alpha: 0.0001
    beta: 0.75
  }
}
layer {
  name: "fc6"
  type: "InnerProduct"
  bottom: "norm5"
  top: "fc6"
  param {
    lr_mult: 1
    decay_mult: 1
  }
  param {
    lr_mult: 2
    decay_mult: 0
  }
  inner_product_param {
    num_output: 4096
    weight_filler {
      type: "gaussian"
      std: 0.005
    }
    bias_filler {
      type: "constant"
      value: 1
    }
  }
}
layer {
  name: "relu6"
  type: "ReLU"
  bottom: "fc6"
  top: "fc6"
}
layer {
  name: "drop6"
  type: "Dropout"
  bottom: "fc6"
  top: "fc6"
  dropout_param {
    dropout_ratio: 0.5
  }
}
layer {
  name: "fc7"
  type: "InnerProduct"
  bottom: "fc6"
  top: "fc7"
  param {
    lr_mult: 1
    decay_mult: 1
  }
  param {
    lr_mult: 2
    decay_mult: 0
  }
  inner_product_param {
    num_output: 4096
    weight_filler {
      type: "gaussian"
      std: 0.005
    }
    bias_filler {
      type: "constant"
      value: 1
    }
  }
}
layer {
  name: "relu7"
  type: "ReLU"
  bottom: "fc7"
  top: "fc7"
}
layer {
  name: "drop7"
  type: "Dropout"
  bottom: "fc7"
  top: "fc7"
  dropout_param {
    dropout_ratio: 0.5
  }
}
layer {
  name: "fc8"
  type: "InnerProduct"
  bottom: "fc7"
  top: "fc8"
  param {
    lr_mult: 1
    decay_mult: 1
  }
  param {
    lr_mult: 2
    decay_mult: 0
  }
  inner_product_param {
    num_output: 5
    weight_filler {
      type: "gaussian"
      std: 0.01
    }
    bias_filler {
      type: "constant"
      value: 0
    }
  }
}
layer {
  name: "loss"
  type: "SoftmaxWithLoss"
  bottom: "fc8"
  bottom: "label"
  top: "loss"
}
I1104 11:34:38.252885 13403 layer_factory.hpp:77] Creating layer data
I1104 11:34:38.252986 13403 db_lmdb.cpp:35] Opened lmdb /home/neha/Documents/MI/input2/train_lmdb
I1104 11:34:38.253005 13403 net.cpp:84] Creating Layer data
I1104 11:34:38.253012 13403 net.cpp:380] data -> data
I1104 11:34:38.253031 13403 net.cpp:380] data -> label
I1104 11:34:38.253041 13403 data_transformer.cpp:25] Loading mean file from: /home/neha/Documents/MI/input2/mean.binaryproto
I1104 11:34:38.254817 13403 data_layer.cpp:45] output data size: 90,3,227,227
I1104 11:34:38.254920 13403 net.cpp:122] Setting up data
I1104 11:34:38.254937 13403 net.cpp:129] Top shape: 90 3 227 227 (13912830)
I1104 11:34:38.254945 13403 net.cpp:129] Top shape: 90 (90)
I1104 11:34:38.254948 13403 net.cpp:137] Memory required for data: 55651680
I1104 11:34:38.254956 13403 layer_factory.hpp:77] Creating layer data_data_0_split
I1104 11:34:38.254969 13403 net.cpp:84] Creating Layer data_data_0_split
I1104 11:34:38.254978 13403 net.cpp:406] data_data_0_split <- data
I1104 11:34:38.254994 13403 net.cpp:380] data_data_0_split -> data_data_0_split_0
I1104 11:34:38.255008 13403 net.cpp:380] data_data_0_split -> data_data_0_split_1
I1104 11:34:38.255020 13403 net.cpp:122] Setting up data_data_0_split
I1104 11:34:38.255028 13403 net.cpp:129] Top shape: 90 3 227 227 (13912830)
I1104 11:34:38.255034 13403 net.cpp:129] Top shape: 90 3 227 227 (13912830)
I1104 11:34:38.255038 13403 net.cpp:137] Memory required for data: 166954320
I1104 11:34:38.255043 13403 layer_factory.hpp:77] Creating layer spatial_pyramid_pooling
I1104 11:34:38.255053 13403 net.cpp:84] Creating Layer spatial_pyramid_pooling
I1104 11:34:38.255058 13403 net.cpp:406] spatial_pyramid_pooling <- data_data_0_split_0
I1104 11:34:38.255064 13403 net.cpp:380] spatial_pyramid_pooling -> spatial_pyramid_pooling
I1104 11:34:38.255136 13403 net.cpp:122] Setting up spatial_pyramid_pooling
I1104 11:34:38.255146 13403 net.cpp:129] Top shape: 90 15 (1350)
I1104 11:34:38.255149 13403 net.cpp:137] Memory required for data: 166959720
I1104 11:34:38.255153 13403 layer_factory.hpp:77] Creating layer conv1
I1104 11:34:38.255182 13403 net.cpp:84] Creating Layer conv1
I1104 11:34:38.255188 13403 net.cpp:406] conv1 <- data_data_0_split_1
I1104 11:34:38.255197 13403 net.cpp:380] conv1 -> conv1
I1104 11:34:38.255918 13403 net.cpp:122] Setting up conv1
I1104 11:34:38.255931 13403 net.cpp:129] Top shape: 90 96 55 55 (26136000)
I1104 11:34:38.255935 13403 net.cpp:137] Memory required for data: 271503720
I1104 11:34:38.255960 13403 layer_factory.hpp:77] Creating layer relu1
I1104 11:34:38.255971 13403 net.cpp:84] Creating Layer relu1
I1104 11:34:38.255975 13403 net.cpp:406] relu1 <- conv1
I1104 11:34:38.255981 13403 net.cpp:367] relu1 -> conv1 (in-place)
I1104 11:34:38.255988 13403 net.cpp:122] Setting up relu1
I1104 11:34:38.255995 13403 net.cpp:129] Top shape: 90 96 55 55 (26136000)
I1104 11:34:38.255998 13403 net.cpp:137] Memory required for data: 376047720
I1104 11:34:38.256001 13403 layer_factory.hpp:77] Creating layer pool1
I1104 11:34:38.256007 13403 net.cpp:84] Creating Layer pool1
I1104 11:34:38.256011 13403 net.cpp:406] pool1 <- conv1
I1104 11:34:38.256016 13403 net.cpp:380] pool1 -> pool1
I1104 11:34:38.256027 13403 net.cpp:122] Setting up pool1
I1104 11:34:38.256033 13403 net.cpp:129] Top shape: 90 96 27 27 (6298560)
I1104 11:34:38.256037 13403 net.cpp:137] Memory required for data: 401241960
I1104 11:34:38.256041 13403 layer_factory.hpp:77] Creating layer norm1
I1104 11:34:38.256047 13403 net.cpp:84] Creating Layer norm1
I1104 11:34:38.256052 13403 net.cpp:406] norm1 <- pool1
I1104 11:34:38.256057 13403 net.cpp:380] norm1 -> norm1
I1104 11:34:38.256067 13403 net.cpp:122] Setting up norm1
I1104 11:34:38.256074 13403 net.cpp:129] Top shape: 90 96 27 27 (6298560)
I1104 11:34:38.256078 13403 net.cpp:137] Memory required for data: 426436200
I1104 11:34:38.256081 13403 layer_factory.hpp:77] Creating layer conv2
I1104 11:34:38.256090 13403 net.cpp:84] Creating Layer conv2
I1104 11:34:38.256094 13403 net.cpp:406] conv2 <- norm1
I1104 11:34:38.256100 13403 net.cpp:380] conv2 -> conv2
I1104 11:34:38.262466 13403 net.cpp:122] Setting up conv2
I1104 11:34:38.262502 13403 net.cpp:129] Top shape: 90 256 27 27 (16796160)
I1104 11:34:38.262508 13403 net.cpp:137] Memory required for data: 493620840
I1104 11:34:38.262524 13403 layer_factory.hpp:77] Creating layer relu2
I1104 11:34:38.262536 13403 net.cpp:84] Creating Layer relu2
I1104 11:34:38.262540 13403 net.cpp:406] relu2 <- conv2
I1104 11:34:38.262548 13403 net.cpp:367] relu2 -> conv2 (in-place)
I1104 11:34:38.262557 13403 net.cpp:122] Setting up relu2
I1104 11:34:38.262562 13403 net.cpp:129] Top shape: 90 256 27 27 (16796160)
I1104 11:34:38.262567 13403 net.cpp:137] Memory required for data: 560805480
I1104 11:34:38.262570 13403 layer_factory.hpp:77] Creating layer conv3
I1104 11:34:38.262580 13403 net.cpp:84] Creating Layer conv3
I1104 11:34:38.262584 13403 net.cpp:406] conv3 <- conv2
I1104 11:34:38.262591 13403 net.cpp:380] conv3 -> conv3
I1104 11:34:38.281232 13403 net.cpp:122] Setting up conv3
I1104 11:34:38.281311 13403 net.cpp:129] Top shape: 90 384 27 27 (25194240)
I1104 11:34:38.281332 13403 net.cpp:137] Memory required for data: 661582440
I1104 11:34:38.281358 13403 layer_factory.hpp:77] Creating layer relu3
I1104 11:34:38.281378 13403 net.cpp:84] Creating Layer relu3
I1104 11:34:38.281391 13403 net.cpp:406] relu3 <- conv3
I1104 11:34:38.281409 13403 net.cpp:367] relu3 -> conv3 (in-place)
I1104 11:34:38.281427 13403 net.cpp:122] Setting up relu3
I1104 11:34:38.281450 13403 net.cpp:129] Top shape: 90 384 27 27 (25194240)
I1104 11:34:38.281471 13403 net.cpp:137] Memory required for data: 762359400
I1104 11:34:38.281487 13403 layer_factory.hpp:77] Creating layer conv4
I1104 11:34:38.281515 13403 net.cpp:84] Creating Layer conv4
I1104 11:34:38.281534 13403 net.cpp:406] conv4 <- conv3
I1104 11:34:38.281556 13403 net.cpp:380] conv4 -> conv4
I1104 11:34:38.295454 13403 net.cpp:122] Setting up conv4
I1104 11:34:38.295536 13403 net.cpp:129] Top shape: 90 384 27 27 (25194240)
I1104 11:34:38.295555 13403 net.cpp:137] Memory required for data: 863136360
I1104 11:34:38.295614 13403 layer_factory.hpp:77] Creating layer relu4
I1104 11:34:38.295635 13403 net.cpp:84] Creating Layer relu4
I1104 11:34:38.295651 13403 net.cpp:406] relu4 <- conv4
I1104 11:34:38.295670 13403 net.cpp:367] relu4 -> conv4 (in-place)
I1104 11:34:38.295691 13403 net.cpp:122] Setting up relu4
I1104 11:34:38.295707 13403 net.cpp:129] Top shape: 90 384 27 27 (25194240)
I1104 11:34:38.295724 13403 net.cpp:137] Memory required for data: 963913320
I1104 11:34:38.295737 13403 layer_factory.hpp:77] Creating layer pool4
I1104 11:34:38.295754 13403 net.cpp:84] Creating Layer pool4
I1104 11:34:38.295769 13403 net.cpp:406] pool4 <- conv4
I1104 11:34:38.295785 13403 net.cpp:380] pool4 -> pool4
I1104 11:34:38.295807 13403 net.cpp:122] Setting up pool4
I1104 11:34:38.295825 13403 net.cpp:129] Top shape: 90 384 13 13 (5840640)
I1104 11:34:38.295837 13403 net.cpp:137] Memory required for data: 987275880
I1104 11:34:38.295850 13403 layer_factory.hpp:77] Creating layer norm4
I1104 11:34:38.295866 13403 net.cpp:84] Creating Layer norm4
I1104 11:34:38.295881 13403 net.cpp:406] norm4 <- pool4
I1104 11:34:38.295897 13403 net.cpp:380] norm4 -> norm4
I1104 11:34:38.295915 13403 net.cpp:122] Setting up norm4
I1104 11:34:38.295931 13403 net.cpp:129] Top shape: 90 384 13 13 (5840640)
I1104 11:34:38.295945 13403 net.cpp:137] Memory required for data: 1010638440
I1104 11:34:38.295958 13403 layer_factory.hpp:77] Creating layer conv5
I1104 11:34:38.295979 13403 net.cpp:84] Creating Layer conv5
I1104 11:34:38.295994 13403 net.cpp:406] conv5 <- norm4
I1104 11:34:38.296011 13403 net.cpp:380] conv5 -> conv5
I1104 11:34:38.299163 13405 data_layer.cpp:73] Restarting data prefetching from start.
I1104 11:34:38.305070 13403 net.cpp:122] Setting up conv5
I1104 11:34:38.305140 13403 net.cpp:129] Top shape: 90 256 13 13 (3893760)
I1104 11:34:38.305157 13403 net.cpp:137] Memory required for data: 1026213480
I1104 11:34:38.305183 13403 layer_factory.hpp:77] Creating layer relu5
I1104 11:34:38.305241 13403 net.cpp:84] Creating Layer relu5
I1104 11:34:38.305258 13403 net.cpp:406] relu5 <- conv5
I1104 11:34:38.305274 13403 net.cpp:367] relu5 -> conv5 (in-place)
I1104 11:34:38.305294 13403 net.cpp:122] Setting up relu5
I1104 11:34:38.305312 13403 net.cpp:129] Top shape: 90 256 13 13 (3893760)
I1104 11:34:38.305325 13403 net.cpp:137] Memory required for data: 1041788520
I1104 11:34:38.305338 13403 layer_factory.hpp:77] Creating layer pool5
I1104 11:34:38.305354 13403 net.cpp:84] Creating Layer pool5
I1104 11:34:38.305368 13403 net.cpp:406] pool5 <- conv5
I1104 11:34:38.305383 13403 net.cpp:380] pool5 -> pool5
I1104 11:34:38.305409 13403 net.cpp:122] Setting up pool5
I1104 11:34:38.305426 13403 net.cpp:129] Top shape: 90 256 6 6 (829440)
I1104 11:34:38.305439 13403 net.cpp:137] Memory required for data: 1045106280
I1104 11:34:38.305452 13403 layer_factory.hpp:77] Creating layer norm5
I1104 11:34:38.305469 13403 net.cpp:84] Creating Layer norm5
I1104 11:34:38.305482 13403 net.cpp:406] norm5 <- pool5
I1104 11:34:38.305498 13403 net.cpp:380] norm5 -> norm5
I1104 11:34:38.305518 13403 net.cpp:122] Setting up norm5
I1104 11:34:38.305533 13403 net.cpp:129] Top shape: 90 256 6 6 (829440)
I1104 11:34:38.305546 13403 net.cpp:137] Memory required for data: 1048424040
I1104 11:34:38.305560 13403 layer_factory.hpp:77] Creating layer fc6
I1104 11:34:38.305578 13403 net.cpp:84] Creating Layer fc6
I1104 11:34:38.305591 13403 net.cpp:406] fc6 <- norm5
I1104 11:34:38.305608 13403 net.cpp:380] fc6 -> fc6
I1104 11:34:38.339745 13405 data_layer.cpp:73] Restarting data prefetching from start.
I1104 11:34:38.380656 13405 data_layer.cpp:73] Restarting data prefetching from start.
I1104 11:34:38.422374 13405 data_layer.cpp:73] Restarting data prefetching from start.
I1104 11:34:38.463243 13405 data_layer.cpp:73] Restarting data prefetching from start.
I1104 11:34:38.505715 13405 data_layer.cpp:73] Restarting data prefetching from start.
I1104 11:34:38.550838 13405 data_layer.cpp:73] Restarting data prefetching from start.
I1104 11:34:39.022341 13403 net.cpp:122] Setting up fc6
I1104 11:34:39.022400 13403 net.cpp:129] Top shape: 90 4096 (368640)
I1104 11:34:39.022408 13403 net.cpp:137] Memory required for data: 1049898600
I1104 11:34:39.022433 13403 layer_factory.hpp:77] Creating layer relu6
I1104 11:34:39.022446 13403 net.cpp:84] Creating Layer relu6
I1104 11:34:39.022451 13403 net.cpp:406] relu6 <- fc6
I1104 11:34:39.022460 13403 net.cpp:367] relu6 -> fc6 (in-place)
I1104 11:34:39.022490 13403 net.cpp:122] Setting up relu6
I1104 11:34:39.022507 13403 net.cpp:129] Top shape: 90 4096 (368640)
I1104 11:34:39.022522 13403 net.cpp:137] Memory required for data: 1051373160
I1104 11:34:39.022536 13403 layer_factory.hpp:77] Creating layer drop6
I1104 11:34:39.022557 13403 net.cpp:84] Creating Layer drop6
I1104 11:34:39.022569 13403 net.cpp:406] drop6 <- fc6
I1104 11:34:39.022585 13403 net.cpp:367] drop6 -> fc6 (in-place)
I1104 11:34:39.022613 13403 net.cpp:122] Setting up drop6
I1104 11:34:39.022631 13403 net.cpp:129] Top shape: 90 4096 (368640)
I1104 11:34:39.022637 13403 net.cpp:137] Memory required for data: 1052847720
I1104 11:34:39.022641 13403 layer_factory.hpp:77] Creating layer fc7
I1104 11:34:39.022651 13403 net.cpp:84] Creating Layer fc7
I1104 11:34:39.022661 13403 net.cpp:406] fc7 <- fc6
I1104 11:34:39.022670 13403 net.cpp:380] fc7 -> fc7
I1104 11:34:39.331830 13403 net.cpp:122] Setting up fc7
I1104 11:34:39.331859 13403 net.cpp:129] Top shape: 90 4096 (368640)
I1104 11:34:39.331864 13403 net.cpp:137] Memory required for data: 1054322280
I1104 11:34:39.331878 13403 layer_factory.hpp:77] Creating layer relu7
I1104 11:34:39.331889 13403 net.cpp:84] Creating Layer relu7
I1104 11:34:39.331894 13403 net.cpp:406] relu7 <- fc7
I1104 11:34:39.331907 13403 net.cpp:367] relu7 -> fc7 (in-place)
I1104 11:34:39.331918 13403 net.cpp:122] Setting up relu7
I1104 11:34:39.331940 13403 net.cpp:129] Top shape: 90 4096 (368640)
I1104 11:34:39.331954 13403 net.cpp:137] Memory required for data: 1055796840
I1104 11:34:39.331969 13403 layer_factory.hpp:77] Creating layer drop7
I1104 11:34:39.331989 13403 net.cpp:84] Creating Layer drop7
I1104 11:34:39.332002 13403 net.cpp:406] drop7 <- fc7
I1104 11:34:39.332018 13403 net.cpp:367] drop7 -> fc7 (in-place)
I1104 11:34:39.332041 13403 net.cpp:122] Setting up drop7
I1104 11:34:39.332059 13403 net.cpp:129] Top shape: 90 4096 (368640)
I1104 11:34:39.332075 13403 net.cpp:137] Memory required for data: 1057271400
I1104 11:34:39.332090 13403 layer_factory.hpp:77] Creating layer fc8
I1104 11:34:39.332111 13403 net.cpp:84] Creating Layer fc8
I1104 11:34:39.332128 13403 net.cpp:406] fc8 <- fc7
I1104 11:34:39.332149 13403 net.cpp:380] fc8 -> fc8
I1104 11:34:39.332551 13403 net.cpp:122] Setting up fc8
I1104 11:34:39.332561 13403 net.cpp:129] Top shape: 90 5 (450)
I1104 11:34:39.332566 13403 net.cpp:137] Memory required for data: 1057273200
I1104 11:34:39.332573 13403 layer_factory.hpp:77] Creating layer loss
I1104 11:34:39.332600 13403 net.cpp:84] Creating Layer loss
I1104 11:34:39.332607 13403 net.cpp:406] loss <- fc8
I1104 11:34:39.332612 13403 net.cpp:406] loss <- label
I1104 11:34:39.332619 13403 net.cpp:380] loss -> loss
I1104 11:34:39.332633 13403 layer_factory.hpp:77] Creating layer loss
…
I1104 11:34:39.333204 13403 net.cpp:294] The NetState phase (1) differed from the phase (0) specified by a rule in layer data
I1104 11:34:39.333374 13403 net.cpp:51] Initializing net from parameters: 
name: "CaffeNet"
state {
  phase: TEST
}
layer {
  name: "data"
  type: "Data"
  top: "data"
  top: "label"
  include {
    phase: TEST
  }
  transform_param {
    mirror: false
    crop_size: 227
    mean_file: "/home/neha/Documents/MI/input2/mean.binaryproto"
  }
  data_param {
    source: "/home/neha/Documents/MI/input2/validation_lmdb"
    batch_size: 30
    backend: LMDB
  }
}
layer {
  name: "spatial_pyramid_pooling"
  type: "SPP"
  bottom: "data"
  top: "spatial_pyramid_pooling"
  spp_param {
    pyramid_height: 2
  }
}
layer {
  name: "conv1"
  type: "Convolution"
  bottom: "data"
  top: "conv1"
  param {
    lr_mult: 1
    decay_mult: 1
  }
  param {
    lr_mult: 2
    decay_mult: 0
  }
  convolution_param {
    num_output: 96
    kernel_size: 11
    stride: 4
    weight_filler {
      type: "gaussian"
      std: 0.01
    }
    bias_filler {
      type: "constant"
      value: 0
    }
  }
}
layer {
  name: "relu1"
  type: "ReLU"
  bottom: "conv1"
  top: "conv1"
}
layer {
  name: "pool1"
  type: "Pooling"
  bottom: "conv1"
  top: "pool1"
  pooling_param {
    pool: MAX
    kernel_size: 3
    stride: 2
  }
}
layer {
  name: "norm1"
  type: "LRN"
  bottom: "pool1"
  top: "norm1"
  lrn_param {
    local_size: 5
    alpha: 0.0001
    beta: 0.75
  }
}
layer {
  name: "conv2"
  type: "Convolution"
  bottom: "norm1"
  top: "conv2"
  param {
    lr_mult: 1
    decay_mult: 1
  }
  param {
    lr_mult: 2
    decay_mult: 0
  }
  convolution_param {
    num_output: 256
    pad: 2
    kernel_size: 5
    group: 2
    weight_filler {
      type: "gaussian"
      std: 0.01
    }
    bias_filler {
      type: "constant"
      value: 1
    }
  }
}
layer {
  name: "relu2"
  type: "ReLU"
  bottom: "conv2"
  top: "conv2"
}
layer {
  name: "conv3"
  type: "Convolution"
  bottom: "conv2"
  top: "conv3"
  param {
    lr_mult: 1
    decay_mult: 1
  }
  param {
    lr_mult: 2
    decay_mult: 0
  }
  convolution_param {
    num_output: 384
    pad: 1
    kernel_size: 3
    weight_filler {
      type: "gaussian"
      std: 0.01
    }
    bias_filler {
      type: "constant"
      value: 0
    }
  }
}
layer {
  name: "relu3"
  type: "ReLU"
  bottom: "conv3"
  top: "conv3"
}
layer {
  name: "conv4"
  type: "Convolution"
  bottom: "conv3"
  top: "conv4"
  param {
    lr_mult: 1
    decay_mult: 1
  }
  param {
    lr_mult: 2
    decay_mult: 0
  }
  convolution_param {
    num_output: 384
    pad: 1
    kernel_size: 3
    group: 2
    weight_filler {
      type: "gaussian"
      std: 0.01
    }
    bias_filler {
      type: "constant"
      value: 1
    }
  }
}
layer {
  name: "relu4"
  type: "ReLU"
  bottom: "conv4"
  top: "conv4"
}
layer {
  name: "pool4"
  type: "Pooling"
  bottom: "conv4"
  top: "pool4"
  pooling_param {
    pool: MAX
    kernel_size: 3
    stride: 2
  }
}
layer {
  name: "norm4"
  type: "LRN"
  bottom: "pool4"
  top: "norm4"
  lrn_param {
    local_size: 5
    alpha: 0.0001
    beta: 0.75
  }
}
layer {
  name: "conv5"
  type: "Convolution"
  bottom: "norm4"
  top: "conv5"
  param {
    lr_mult: 1
    decay_mult: 1
  }
  param {
    lr_mult: 2
    decay_mult: 0
  }
  convolution_param {
    num_output: 256
    pad: 1
    kernel_size: 3
    group: 2
    weight_filler {
      type: "gaussian"
      std: 0.01
    }
    bias_filler {
      type: "constant"
      value: 1
    }
  }
}
layer {
  name: "relu5"
  type: "ReLU"
  bottom: "conv5"
  top: "conv5"
}
layer {
  name: "pool5"
  type: "Pooling"
  bottom: "conv5"
  top: "pool5"
  pooling_param {
    pool: MAX
    kernel_size: 3
    stride: 2
  }
}
layer {
  name: "norm5"
  type: "LRN"
  bottom: "pool5"
  top: "norm5"
  lrn_param {
    local_size: 5
    alpha: 0.0001
    beta: 0.75
  }
}
layer {
  name: "fc6"
  type: "InnerProduct"
  bottom: "norm5"
  top: "fc6"
  param {
    lr_mult: 1
    decay_mult: 1
  }
  param {
    lr_mult: 2
    decay_mult: 0
  }
  inner_product_param {
    num_output: 4096
    weight_filler {
      type: "gaussian"
      std: 0.005
    }
    bias_filler {
      type: "constant"
      value: 1
    }
  }
}
layer {
  name: "relu6"
  type: "ReLU"
  bottom: "fc6"
  top: "fc6"
}
layer {
  name: "drop6"
  type: "Dropout"
  bottom: "fc6"
  top: "fc6"
  dropout_param {
    dropout_ratio: 0.5
  }
}
layer {
  name: "fc7"
  type: "InnerProduct"
  bottom: "fc6"
  top: "fc7"
  param {
    lr_mult: 1
    decay_mult: 1
  }
  param {
    lr_mult: 2
    decay_mult: 0
  }
  inner_product_param {
    num_output: 4096
    weight_filler {
      type: "gaussian"
      std: 0.005
    }
    bias_filler {
      type: "constant"
      value: 1
    }
  }
}
layer {
  name: "relu7"
  type: "ReLU"
  bottom: "fc7"
  top: "fc7"
}
layer {
  name: "drop7"
  type: "Dropout"
  bottom: "fc7"
  top: "fc7"
  dropout_param {
    dropout_ratio: 0.5
  }
}
layer {
  name: "fc8"
  type: "InnerProduct"
  bottom: "fc7"
  top: "fc8"
  param {
    lr_mult: 1
    decay_mult: 1
  }
  param {
    lr_mult: 2
    decay_mult: 0
  }
  inner_product_param {
    num_output: 5
    weight_filler {
      type: "gaussian"
      std: 0.01
    }
    bias_filler {
      type: "constant"
      value: 0
    }
  }
}
layer {
  name: "accuracy"
  type: "Accuracy"
  bottom: "fc8"
  bottom: "label"
  top: "accuracy"
  include {
    phase: TEST
  }
}
layer {
  name: "loss"
  type: "SoftmaxWithLoss"
  bottom: "fc8"
  bottom: "label"
  top: "loss"
}
I1104 11:34:39.333520 13403 layer_factory.hpp:77] Creating layer data
I1104 11:34:39.333581 13403 db_lmdb.cpp:35] Opened lmdb /home/neha/Documents/MI/input2/validation_lmdb
I1104 11:34:39.333595 13403 net.cpp:84] Creating Layer data
I1104 11:34:39.333603 13403 net.cpp:380] data -> data
I1104 11:34:39.333629 13403 net.cpp:380] data -> label
I1104 11:34:39.333647 13403 data_transformer.cpp:25] Loading mean file from: /home/neha/Documents/MI/input2/mean.binaryproto
I1104 11:34:39.334918 13403 data_layer.cpp:45] output data size: 30,3,227,227
I1104 11:34:39.334990 13403 net.cpp:122] Setting up data
I1104 11:34:39.335028 13403 net.cpp:129] Top shape: 30 3 227 227 (4637610)
I1104 11:34:39.335052 13403 net.cpp:129] Top shape: 30 (30)
I1104 11:34:39.335069 13403 net.cpp:137] Memory required for data: 18550560
I1104 11:34:39.335099 13403 layer_factory.hpp:77] Creating layer data_data_0_split
I1104 11:34:39.335135 13403 net.cpp:84] Creating Layer data_data_0_split
I1104 11:34:39.335155 13403 net.cpp:406] data_data_0_split <- data
I1104 11:34:39.335180 13403 net.cpp:380] data_data_0_split -> data_data_0_split_0
I1104 11:34:39.335206 13403 net.cpp:380] data_data_0_split -> data_data_0_split_1
I1104 11:34:39.335230 13403 net.cpp:122] Setting up data_data_0_split
I1104 11:34:39.335252 13403 net.cpp:129] Top shape: 30 3 227 227 (4637610)
I1104 11:34:39.335271 13403 net.cpp:129] Top shape: 30 3 227 227 (4637610)
I1104 11:34:39.335289 13403 net.cpp:137] Memory required for data: 55651440
I1104 11:34:39.335305 13403 layer_factory.hpp:77] Creating layer label_data_1_split
I1104 11:34:39.335326 13403 net.cpp:84] Creating Layer label_data_1_split
I1104 11:34:39.335345 13403 net.cpp:406] label_data_1_split <- label
I1104 11:34:39.335364 13403 net.cpp:380] label_data_1_split -> label_data_1_split_0
I1104 11:34:39.335387 13403 net.cpp:380] label_data_1_split -> label_data_1_split_1
I1104 11:34:39.335410 13403 net.cpp:122] Setting up label_data_1_split
I1104 11:34:39.335430 13403 net.cpp:129] Top shape: 30 (30)
I1104 11:34:39.335448 13403 net.cpp:129] Top shape: 30 (30)
I1104 11:34:39.335464 13403 net.cpp:137] Memory required for data: 55651680
I1104 11:34:39.335482 13403 layer_factory.hpp:77] Creating layer spatial_pyramid_pooling
I1104 11:34:39.335503 13403 net.cpp:84] Creating Layer spatial_pyramid_pooling
I1104 11:34:39.335521 13403 net.cpp:406] spatial_pyramid_pooling <- data_data_0_split_0
I1104 11:34:39.335541 13403 net.cpp:380] spatial_pyramid_pooling -> spatial_pyramid_pooling
I1104 11:34:39.335597 13403 net.cpp:122] Setting up spatial_pyramid_pooling
I1104 11:34:39.335621 13403 net.cpp:129] Top shape: 30 15 (450)
I1104 11:34:39.335638 13403 net.cpp:137] Memory required for data: 55653480
I1104 11:34:39.335655 13403 layer_factory.hpp:77] Creating layer conv1
I1104 11:34:39.335682 13403 net.cpp:84] Creating Layer conv1
I1104 11:34:39.335700 13403 net.cpp:406] conv1 <- data_data_0_split_1
I1104 11:34:39.335722 13403 net.cpp:380] conv1 -> conv1
I1104 11:34:39.336311 13403 net.cpp:122] Setting up conv1
I1104 11:34:39.336340 13403 net.cpp:129] Top shape: 30 96 55 55 (8712000)
I1104 11:34:39.336359 13403 net.cpp:137] Memory required for data: 90501480
I1104 11:34:39.336385 13403 layer_factory.hpp:77] Creating layer relu1
I1104 11:34:39.336406 13403 net.cpp:84] Creating Layer relu1
I1104 11:34:39.336424 13403 net.cpp:406] relu1 <- conv1
I1104 11:34:39.336444 13403 net.cpp:367] relu1 -> conv1 (in-place)
I1104 11:34:39.336467 13403 net.cpp:122] Setting up relu1
I1104 11:34:39.336485 13403 net.cpp:129] Top shape: 30 96 55 55 (8712000)
I1104 11:34:39.336503 13403 net.cpp:137] Memory required for data: 125349480
I1104 11:34:39.336519 13403 layer_factory.hpp:77] Creating layer pool1
I1104 11:34:39.336540 13403 net.cpp:84] Creating Layer pool1
I1104 11:34:39.336557 13403 net.cpp:406] pool1 <- conv1
I1104 11:34:39.336577 13403 net.cpp:380] pool1 -> pool1
I1104 11:34:39.336603 13403 net.cpp:122] Setting up pool1
I1104 11:34:39.336625 13403 net.cpp:129] Top shape: 30 96 27 27 (2099520)
I1104 11:34:39.336642 13403 net.cpp:137] Memory required for data: 133747560
I1104 11:34:39.336659 13403 layer_factory.hpp:77] Creating layer norm1
I1104 11:34:39.336679 13403 net.cpp:84] Creating Layer norm1
I1104 11:34:39.336702 13403 net.cpp:406] norm1 <- pool1
I1104 11:34:39.336730 13403 net.cpp:380] norm1 -> norm1
I1104 11:34:39.336758 13403 net.cpp:122] Setting up norm1
I1104 11:34:39.336778 13403 net.cpp:129] Top shape: 30 96 27 27 (2099520)
I1104 11:34:39.336796 13403 net.cpp:137] Memory required for data: 142145640
I1104 11:34:39.336815 13403 layer_factory.hpp:77] Creating layer conv2
I1104 11:34:39.336841 13403 net.cpp:84] Creating Layer conv2
I1104 11:34:39.336863 13403 net.cpp:406] conv2 <- norm1
I1104 11:34:39.336885 13403 net.cpp:380] conv2 -> conv2
I1104 11:34:39.341967 13403 net.cpp:122] Setting up conv2
I1104 11:34:39.342054 13403 net.cpp:129] Top shape: 30 256 27 27 (5598720)
I1104 11:34:39.342088 13403 net.cpp:137] Memory required for data: 164540520
I1104 11:34:39.342130 13403 layer_factory.hpp:77] Creating layer relu2
I1104 11:34:39.342182 13403 net.cpp:84] Creating Layer relu2
I1104 11:34:39.342200 13403 net.cpp:406] relu2 <- conv2
I1104 11:34:39.342219 13403 net.cpp:367] relu2 -> conv2 (in-place)
I1104 11:34:39.342242 13403 net.cpp:122] Setting up relu2
I1104 11:34:39.342260 13403 net.cpp:129] Top shape: 30 256 27 27 (5598720)
I1104 11:34:39.342275 13403 net.cpp:137] Memory required for data: 186935400
I1104 11:34:39.342291 13403 layer_factory.hpp:77] Creating layer conv3
I1104 11:34:39.342315 13403 net.cpp:84] Creating Layer conv3
I1104 11:34:39.342332 13403 net.cpp:406] conv3 <- conv2
I1104 11:34:39.342352 13403 net.cpp:380] conv3 -> conv3
I1104 11:34:39.343294 13406 data_layer.cpp:73] Restarting data prefetching from start.
I1104 11:34:39.352202 13406 data_layer.cpp:73] Restarting data prefetching from start.
I1104 11:34:39.357633 13403 net.cpp:122] Setting up conv3
I1104 11:34:39.357751 13403 net.cpp:129] Top shape: 30 384 27 27 (8398080)
I1104 11:34:39.357769 13403 net.cpp:137] Memory required for data: 220527720
I1104 11:34:39.357795 13403 layer_factory.hpp:77] Creating layer relu3
I1104 11:34:39.357815 13403 net.cpp:84] Creating Layer relu3
I1104 11:34:39.357830 13403 net.cpp:406] relu3 <- conv3
I1104 11:34:39.357847 13403 net.cpp:367] relu3 -> conv3 (in-place)
I1104 11:34:39.357867 13403 net.cpp:122] Setting up relu3
I1104 11:34:39.357882 13403 net.cpp:129] Top shape: 30 384 27 27 (8398080)
I1104 11:34:39.357897 13403 net.cpp:137] Memory required for data: 254120040
I1104 11:34:39.357910 13403 layer_factory.hpp:77] Creating layer conv4
I1104 11:34:39.357942 13403 net.cpp:84] Creating Layer conv4
I1104 11:34:39.357960 13403 net.cpp:406] conv4 <- conv3
I1104 11:34:39.357980 13403 net.cpp:380] conv4 -> conv4
I1104 11:34:39.360388 13406 data_layer.cpp:73] Restarting data prefetching from start.
I1104 11:34:39.369699 13406 data_layer.cpp:73] Restarting data prefetching from start.
I1104 11:34:39.369724 13403 net.cpp:122] Setting up conv4
I1104 11:34:39.369817 13403 net.cpp:129] Top shape: 30 384 27 27 (8398080)
I1104 11:34:39.369834 13403 net.cpp:137] Memory required for data: 287712360
I1104 11:34:39.369854 13403 layer_factory.hpp:77] Creating layer relu4
I1104 11:34:39.369874 13403 net.cpp:84] Creating Layer relu4
I1104 11:34:39.369887 13403 net.cpp:406] relu4 <- conv4
I1104 11:34:39.369904 13403 net.cpp:367] relu4 -> conv4 (in-place)
I1104 11:34:39.369921 13403 net.cpp:122] Setting up relu4
I1104 11:34:39.369936 13403 net.cpp:129] Top shape: 30 384 27 27 (8398080)
I1104 11:34:39.369948 13403 net.cpp:137] Memory required for data: 321304680
I1104 11:34:39.369961 13403 layer_factory.hpp:77] Creating layer pool4
I1104 11:34:39.369976 13403 net.cpp:84] Creating Layer pool4
I1104 11:34:39.369988 13403 net.cpp:406] pool4 <- conv4
I1104 11:34:39.370003 13403 net.cpp:380] pool4 -> pool4
I1104 11:34:39.370024 13403 net.cpp:122] Setting up pool4
I1104 11:34:39.370039 13403 net.cpp:129] Top shape: 30 384 13 13 (1946880)
I1104 11:34:39.370051 13403 net.cpp:137] Memory required for data: 329092200
I1104 11:34:39.370064 13403 layer_factory.hpp:77] Creating layer norm4
I1104 11:34:39.370079 13403 net.cpp:84] Creating Layer norm4
I1104 11:34:39.370091 13403 net.cpp:406] norm4 <- pool4
I1104 11:34:39.370105 13403 net.cpp:380] norm4 -> norm4
I1104 11:34:39.370123 13403 net.cpp:122] Setting up norm4
I1104 11:34:39.370137 13403 net.cpp:129] Top shape: 30 384 13 13 (1946880)
I1104 11:34:39.370149 13403 net.cpp:137] Memory required for data: 336879720
I1104 11:34:39.370162 13403 layer_factory.hpp:77] Creating layer conv5
I1104 11:34:39.370184 13403 net.cpp:84] Creating Layer conv5
I1104 11:34:39.370198 13403 net.cpp:406] conv5 <- norm4
I1104 11:34:39.370213 13403 net.cpp:380] conv5 -> conv5
I1104 11:34:39.377773 13403 net.cpp:122] Setting up conv5
I1104 11:34:39.377841 13403 net.cpp:129] Top shape: 30 256 13 13 (1297920)
I1104 11:34:39.377858 13403 net.cpp:137] Memory required for data: 342071400
I1104 11:34:39.377893 13403 layer_factory.hpp:77] Creating layer relu5
I1104 11:34:39.377923 13403 net.cpp:84] Creating Layer relu5
I1104 11:34:39.377930 13406 data_layer.cpp:73] Restarting data prefetching from start.
I1104 11:34:39.377940 13403 net.cpp:406] relu5 <- conv5
I1104 11:34:39.378000 13403 net.cpp:367] relu5 -> conv5 (in-place)
I1104 11:34:39.378023 13403 net.cpp:122] Setting up relu5
I1104 11:34:39.378039 13403 net.cpp:129] Top shape: 30 256 13 13 (1297920)
I1104 11:34:39.378053 13403 net.cpp:137] Memory required for data: 347263080
I1104 11:34:39.378067 13403 layer_factory.hpp:77] Creating layer pool5
I1104 11:34:39.378082 13403 net.cpp:84] Creating Layer pool5
I1104 11:34:39.378096 13403 net.cpp:406] pool5 <- conv5
I1104 11:34:39.378113 13403 net.cpp:380] pool5 -> pool5
I1104 11:34:39.378136 13403 net.cpp:122] Setting up pool5
I1104 11:34:39.378154 13403 net.cpp:129] Top shape: 30 256 6 6 (276480)
I1104 11:34:39.378167 13403 net.cpp:137] Memory required for data: 348369000
I1104 11:34:39.378180 13403 layer_factory.hpp:77] Creating layer norm5
I1104 11:34:39.378198 13403 net.cpp:84] Creating Layer norm5
I1104 11:34:39.378212 13403 net.cpp:406] norm5 <- pool5
I1104 11:34:39.378227 13403 net.cpp:380] norm5 -> norm5
I1104 11:34:39.378247 13403 net.cpp:122] Setting up norm5
I1104 11:34:39.378262 13403 net.cpp:129] Top shape: 30 256 6 6 (276480)
I1104 11:34:39.378275 13403 net.cpp:137] Memory required for data: 349474920
I1104 11:34:39.378288 13403 layer_factory.hpp:77] Creating layer fc6
I1104 11:34:39.378305 13403 net.cpp:84] Creating Layer fc6
I1104 11:34:39.378319 13403 net.cpp:406] fc6 <- norm5
I1104 11:34:39.378336 13403 net.cpp:380] fc6 -> fc6
I1104 11:34:39.386236 13406 data_layer.cpp:73] Restarting data prefetching from start.
I1104 11:34:39.394433 13406 data_layer.cpp:73] Restarting data prefetching from start.
I1104 11:34:39.403540 13406 data_layer.cpp:73] Restarting data prefetching from start.
I1104 11:34:39.411707 13406 data_layer.cpp:73] Restarting data prefetching from start.
I1104 11:34:39.420272 13406 data_layer.cpp:73] Restarting data prefetching from start.
I1104 11:34:39.428503 13406 data_layer.cpp:73] Restarting data prefetching from start.
I1104 11:34:39.437821 13406 data_layer.cpp:73] Restarting data prefetching from start.
I1104 11:34:39.798727 13403 net.cpp:122] Setting up fc6
I1104 11:34:39.798789 13403 net.cpp:129] Top shape: 30 4096 (122880)
I1104 11:34:39.798794 13403 net.cpp:137] Memory required for data: 349966440
I1104 11:34:39.798810 13403 layer_factory.hpp:77] Creating layer relu6
I1104 11:34:39.798823 13403 net.cpp:84] Creating Layer relu6
I1104 11:34:39.798828 13403 net.cpp:406] relu6 <- fc6
I1104 11:34:39.798837 13403 net.cpp:367] relu6 -> fc6 (in-place)
I1104 11:34:39.798847 13403 net.cpp:122] Setting up relu6
I1104 11:34:39.798853 13403 net.cpp:129] Top shape: 30 4096 (122880)
I1104 11:34:39.798857 13403 net.cpp:137] Memory required for data: 350457960
I1104 11:34:39.798861 13403 layer_factory.hpp:77] Creating layer drop6
I1104 11:34:39.798869 13403 net.cpp:84] Creating Layer drop6
I1104 11:34:39.798873 13403 net.cpp:406] drop6 <- fc6
I1104 11:34:39.798882 13403 net.cpp:367] drop6 -> fc6 (in-place)
I1104 11:34:39.798892 13403 net.cpp:122] Setting up drop6
I1104 11:34:39.798897 13403 net.cpp:129] Top shape: 30 4096 (122880)
I1104 11:34:39.798900 13403 net.cpp:137] Memory required for data: 350949480
I1104 11:34:39.798904 13403 layer_factory.hpp:77] Creating layer fc7
I1104 11:34:39.798913 13403 net.cpp:84] Creating Layer fc7
I1104 11:34:39.798916 13403 net.cpp:406] fc7 <- fc6
I1104 11:34:39.798923 13403 net.cpp:380] fc7 -> fc7
I1104 11:34:39.976882 13403 net.cpp:122] Setting up fc7
I1104 11:34:39.976920 13403 net.cpp:129] Top shape: 30 4096 (122880)
I1104 11:34:39.976924 13403 net.cpp:137] Memory required for data: 351441000
I1104 11:34:39.976940 13403 layer_factory.hpp:77] Creating layer relu7
I1104 11:34:39.976956 13403 net.cpp:84] Creating Layer relu7
I1104 11:34:39.976961 13403 net.cpp:406] relu7 <- fc7
I1104 11:34:39.976969 13403 net.cpp:367] relu7 -> fc7 (in-place)
I1104 11:34:39.976980 13403 net.cpp:122] Setting up relu7
I1104 11:34:39.977041 13403 net.cpp:129] Top shape: 30 4096 (122880)
I1104 11:34:39.977046 13403 net.cpp:137] Memory required for data: 351932520
I1104 11:34:39.977049 13403 layer_factory.hpp:77] Creating layer drop7
I1104 11:34:39.977057 13403 net.cpp:84] Creating Layer drop7
I1104 11:34:39.977061 13403 net.cpp:406] drop7 <- fc7
I1104 11:34:39.977071 13403 net.cpp:367] drop7 -> fc7 (in-place)
I1104 11:34:39.977079 13403 net.cpp:122] Setting up drop7
I1104 11:34:39.977084 13403 net.cpp:129] Top shape: 30 4096 (122880)
I1104 11:34:39.977087 13403 net.cpp:137] Memory required for data: 352424040
I1104 11:34:39.977092 13403 layer_factory.hpp:77] Creating layer fc8
I1104 11:34:39.977100 13403 net.cpp:84] Creating Layer fc8
I1104 11:34:39.977104 13403 net.cpp:406] fc8 <- fc7
I1104 11:34:39.977111 13403 net.cpp:380] fc8 -> fc8
I1104 11:34:39.977396 13403 net.cpp:122] Setting up fc8
I1104 11:34:39.977406 13403 net.cpp:129] Top shape: 30 5 (150)
I1104 11:34:39.977411 13403 net.cpp:137] Memory required for data: 352424640
I1104 11:34:39.977418 13403 layer_factory.hpp:77] Creating layer fc8_fc8_0_split
I1104 11:34:39.977425 13403 net.cpp:84] Creating Layer fc8_fc8_0_split
I1104 11:34:39.977430 13403 net.cpp:406] fc8_fc8_0_split <- fc8
I1104 11:34:39.977437 13403 net.cpp:380] fc8_fc8_0_split -> fc8_fc8_0_split_0
I1104 11:34:39.977448 13403 net.cpp:380] fc8_fc8_0_split -> fc8_fc8_0_split_1
I1104 11:34:39.977458 13403 net.cpp:122] Setting up fc8_fc8_0_split
I1104 11:34:39.977464 13403 net.cpp:129] Top shape: 30 5 (150)
I1104 11:34:39.977470 13403 net.cpp:129] Top shape: 30 5 (150)
I1104 11:34:39.977474 13403 net.cpp:137] Memory required for data: 352425840
I1104 11:34:39.977478 13403 layer_factory.hpp:77] Creating layer accuracy
I1104 11:34:39.977486 13403 net.cpp:84] Creating Layer accuracy
I1104 11:34:39.977490 13403 net.cpp:406] accuracy <- fc8_fc8_0_split_0
I1104 11:34:39.977496 13403 net.cpp:406] accuracy <- label_data_1_split_0
I1104 11:34:39.977505 13403 net.cpp:380] accuracy -> accuracy
…
